models/hey_marvin_v0.1.onnx (onnx, 857691 bytes, 9 tensors)

1.weight f4 [128, 1536]
-0.032964382 -0.016802562 -0.0032716529 0.013649672 -0.037571922 0.06123222 0.025221452 0.0043427367
0.16231357 0.04696949 -0.017805409 -0.1591019 0.112612985 -0.0940962 0.012790522 0.044358816
-0.01651737 0.009400213 0.04421467 0.0045134607 -0.018721493 0.023491492 -0.083937556 0.08976658
-0.040512957 0.009623835 -0.026787916 0.053682 0.0902413 0.042617343 -0.13047682 0.17778288
-0.045561858 -0.018691184 0.018868461 0.011537399 0.06575505 0.060782235 0.0045683878 0.1159289
-0.18061472 0.024177946 0.084999144 -0.123716936 0.072757386 -0.020228704 -0.046469092 -0.010501399
0.15139748 -0.012706501 -0.10621785 0.08384998 0.014836433 -0.14134759 0.015345073 -0.067903675
-0.038819585 -0.012864892 -0.07620232 -0.080426976 -0.023565758 0.14598842 -0.011379812 -0.04817417
0.007376303 0.03468278 -0.17712282 -0.029000917 0.009980553 0.10415969 0.057427652 0.08725684
-0.043700896 -0.1396468 0.04667476 -0.07603035 -0.08557517 -0.074833274 -0.09679637 -0.059404507
-0.014555821 0.05447358 0.084893405 -0.06538343 0.13223584 0.10422134 0.08197424 0.017679462
-0.08279947 0.043096486 -0.02648482 -0.0018404302 0.01746172 -0.079936154 0.024282878 0.048395257
0.01300654 0.020534078 0.06946167 0.014960455 -0.01685226 0.04460077 0.033512536 -0.0032595734
0.11039375 0.09650267 -0.049950466 -0.0924861 0.11784461 -0.014112395 0.045672294 0.07135336
-0.09154806 0.057924796 -0.008061362 -0.01348689 0.085113525 -0.01800836 -0.067407206 0.018282808
-0.15256849 0.0057459227 -0.033679284 0.03771855 0.088905424 -0.00077647174 -0.10764801 0.11373116
-0.065642245 0.05402068 0.031157603 -0.014591256 0.08277998 0.077776596 0.020857288 0.077990286
-0.09137877 -0.0048707463 0.083053306 -0.118167296 0.04278453 0.013100742 -0.103849314 -0.030155892
0.087883085 -0.085871555 -0.12946527 0.11961406 -0.0062117316 -0.09637387 0.041734282 -0.03857358
-0.05759096 0.051116824 -0.05202964 -0.013558101 0.016454183 0.05303826 -0.02136579 -0.06944916
0.046710882 0.016875317 -0.09199037 -0.03271541 -0.0027882783 0.031475097 0.10134808 0.040749814
-0.019701153 -0.05903872 0.048026014 -0.024181062 -0.028396962 -0.08686904 -0.08358896 -0.06328378
-0.043583874 0.06444735 0.105826825 -0.0019026656 0.09142435 0.044872846 0.0029327509 -0.010345768
0.00286487 0.019608246 -0.04395961 0.011891416 0.024508199 -0.10530145 -0.008474394 0.029068122
0.014370696 0.062485956 0.038246498 -0.02042158 0.02345831 0.0660019 0.01918884 0.0051490944
0.11686941 0.05878615 0.03227448 -0.11270402 0.048146944 -0.088927336 0.092639245 0.07578963
-0.04500156 0.034178413 0.00089651806 -0.027874291 0.07205108 0.004972103 -0.056049176 0.11467779
-0.13324705 -0.016972277 -0.025144894 0.014438591 0.08082944 -0.0038169818 -0.061100848 0.09115425
-0.06305003 0.020021256 -0.006800298 0.04884518 0.06483794 0.11313489 0.021612745 0.08878149
-0.090550736 0.023652054 0.073981985 -0.07163607 -0.053895026 -0.014262414 -0.10103067 -0.04898741
0.06723929 -0.03511499 -0.12468816 0.13570523 -0.03761144 -0.06962849 0.028622245 -0.0565299
-0.13450667 0.021866431 -0.047365535 0.033740718 0.06903815 0.025635295 -0.060548466 -0.095292106
00000000: a905 07bd 87a5 89bc 3a69 56bb e0a2 5f3c
00000010: 04e5 19bd a3ce 7a3d 389d ce3c 844d 8e3b
00000020: 8735 263e 1463 403d a6dc 91bc 9ceb 22be
00000030: a3a1 e63d 82b5 c0bd 568f 513c 97b1 353d
00000040: 6f4f 87bc 5a03 1a3c 711a 353d a7e5 933b
00000050: d15d 99bc 3b71 c03c 74e7 abbd 8ad7 b73d
00000060: eaf0 25bd 4aad 1d3c 5572 dbbc a8e1 5b3d
00000070: 6ed0 b83d 868f 2e3d b79b 05be b70c 363e
00000080: 129f 3abd 411e 99bc 0892 9a3c 5c07 3d3c
00000090: 95aa 863d cbf6 783d 6ab2 953b 226c ed3d
000000a0: 11f3 38be d410 c63c 0814 ae3d 4e5f fdbd
000000b0: d301 953d abb6 a5bc 6056 3ebd 0f0e 2cbc
000000c0: f107 1b3e ee2e 50bc bf88 d9bd 8ab9 ab3d
000000d0: 8314 733c 6cbd 10be e769 7b3c 1511 8bbd
000000e0: 4901 1fbd 45c7 52bc f60f 9cbd e6b6 a4bd
000000f0: fa0c c1bc fd7d 153e 6472 3abc 4752 45bd
00000100: eab4 f13b 880f 0e3d af5f 35be 5593 edbc
00000110: 7985 233c ad51 d53d 4239 6b3d b7b3 b23d
00000120: b6ff 32bd 92ff 0ebe 082e 3f3d cdb5 9bbd
00000130: 0942 afbd 3042 99bd 2d3d c6bd 2452 73bd
00000140: 8a7b 6ebc b01f 5f3d 98dc ad3d bfe7 85bd
00000150: d568 073e ff71 d53d 1ce2 a73d 85d4 903c
00000160: c592 a9bd f185 303d b1f6 d8bc 973a f1ba
00000170: e20b 8f3c 91b5 a3bd e3ec c63c 1b3a 463d
00000180: 6219 553c 1537 a83c ec41 8e3d b21c 753c
00000190: c00d 8abc 4caf 363d 7144 093d 919e 55bb
000001a0: 1e16 e23d 31a3 c53d dc98 4cbd 5a69 bdbd
000001b0: 8458 f13d ad37 67bc df12 3b3d b621 923d
000001c0: 8d7d bbbd 8d42 6d3d ce13 04bc 1ef8 5cbc
000001d0: 0050 ae3d 4586 93bc ca0c 8abd d4c5 953c
000001e0: ea3a 1cbe 4b48 bc3b 4af3 09bd c47e 1a3d
000001f0: 0c14 b63d 238c 4bba 8f76 dcbd e2eb e83d
00000200: 716f 86bd ca44 5d3d 3b3e ff3c 2a10 6fbc
00000210: 8d88 a93d 5649 9f3d e7dc aa3c 5fb9 9f3d
00000220: cb24 bbbd c89a 9fbb da17 aa3d b201 f2bd
00000230: d53e 2f3d 7fa4 563c f3ae d4bd 7d09 f7bc
00000240: 0cfc b33d 6ddd afbd 8b92 04be 37f8 f43d
00000250: c88b cbbb aa5f c5bd 91f1 2a3d 55ff 1dbd
00000260: 80e4 6bbd e05f 513d 081d 55bd cc22 5ebc
00000270: ecca 863c a63e 593d 4f07 afbc 5c3b 8ebd
00000280: e953 3f3d 1b3e 8a3c 7265 bcbd 9800 06bd
00000290: 8cbb 36bb 08ec 003d 958f cf3d 47e9 263d
000002a0: 5064 a1bc 96d2 71bd edb6 443d 5d17 c6bc
000002b0: bfa0 e8bc 65e8 b1bd b030 abbd ed9a 81bd
000002c0: 0185 32bd f9fc 833d bcbb d83d dd62 f9ba
000002d0: b13c bb3d 97cc 373d 6533 403b 4c81 29bc
000002e0: 8bc0 3b3b 79a1 a03c fe0e 34bd 37d4 423c
000002f0: 6bc5 c83c 49a8 d7bd 2fd8 0abc 4520 ee3c
00000300: 1173 6b3c 46f1 7f3d 5ca8 1c3d 284b a7bc
00000310: a42b c03c 012c 873d ea31 9d3c bcb9 a83b
00000320: 3b59 ef3d bfc9 703d 3f32 043d 5ed1 e6bd
00000330: bb35 453d 891f b6bd a5b9 bd3d 9837 9b3d
00000340: 8e53 38bd aafe 0b3d 4f04 6b3a a058 e4bc
00000350: 848f 933d 06ed a23b d293 65bd 30dc ea3d
00000360: ea71 08be 7209 8bbc aafc cdbc d78f 6c3c
00000370: e889 a53d 5426 7abb e244 7abd 14af ba3d
00000380: 6020 81bd 9e03 a43c 09d5 debb e211 483d
00000390: c1c9 843d 44b3 e73d 360d b13c 12d3 b53d
000003a0: aa72 b9bd f4c1 c13c de83 973d efb5 92bd
000003b0: 08c1 5cbd e6ac 69bc 2be9 cebd 06a7 48bd
000003c0: c1b4 893d bcd4 0fbd 825c ffbd 50f6 0a3e
000003d0: 740e 1abd 6299 8ebd 3379 ea3c e58b 67bd
000003e0: 1ebc 09be 3b21 b33c 5d02 42bd b533 0a3d
000003f0: e063 8d3d 1c01 d23c ab01 78bd 8228 c3bd

1.bias f4 [128]
0.062861115 0.03046569 0.010055345 0.035300277 0.027142879 0.007692906 0.04015643 0.014319451
-0.0016067002 0.014892571 0.047888283 0.018833429 0.0036973495 -0.0027101173 0.017053891 0.05240069
0.0147358235 0.037779797 0.029390736 0.04397124 -0.00046633166 0.037682623 0.02088599 0.061103374
0.014732156 0.04212592 0.003373112 0.019327156 0.03239035 0.052230462 0.0072918753 0.025982711
0.033540856 0.0036075881 0.024797192 0.034719333 0.0063246316 0.030610582 0.028072549 0.009003293
0.010664957 0.005326071 0.017328689 0.0180695 0.026978282 0.027652692 0.020624552 0.008415708
0.0640445 0.028489614 0.010332899 0.035217308 0.016951688 -0.0040047457 0.05270745 0.027906392
0.06385226 0.005302496 0.04624467 -0.008389088 0.016784262 0.01487979 0.023591071 0.049397502
0.028997118 0.0620679 0.003143376 0.047064137 0.016786955 0.005193195 0.07108442 0.021598712
0.051916394 0.043451816 0.0253321 0.026787125 0.0033709558 0.058438092 0.039153893 -0.0038696623
0.014226939 0.0050465064 0.035863634 0.018092025 0.027237456 0.051130254 0.009223082 0.04666862
0.016480621 0.003494226 0.014309754 0.056937292 0.017837135 0.01216288 0.041418694 0.029690422
0.04585188 0.05066204 0.063707165 0.070570834 0.030015174 0.010923085 0.04538919 0.028787041
0.014336236 -0.014859821 0.022017987 0.016275533 0.0269014 0.032959454 0.080394305 0.0442619
0.03745946 -0.013211622 0.045123976 0.040266596 0.026597554 0.035375245 0.019246204 0.043932874
0.02875996 0.053828362 0.0256546 0.06791608 0.057890154 0.040231258 -0.0121676745 0.04893743
00000000: 54bd 803d 2f93 f93c 2cbf 243c 0697 103d
00000010: be5a de3c c614 fc3b 127b 243d 219c 6a3c
00000020: ea97 d2ba f8ff 733c 8126 443d 9048 9a3c
00000030: 3b4f 723b 399c 31bb 9ab4 8b3c 1ba2 563d
00000040: 866e 713c fdbe 1a3d d7c4 f03c 301b 343d
00000050: fa7d f4b9 1859 1a3d 1819 ab3c 8847 7a3d
00000060: 245f 713c 3b8c 2c3d 6e0f 5d3b fc53 9e3c
00000070: beab 043d 9cef 553d aff0 ee3b b2d9 d43c
00000080: 2362 093d 496d 6c3b 7b23 cb3c dc35 0e3d
00000090: db3e cf3b 0bc3 fa3c 67f8 e53c 8c82 133c
000000a0: 12bc 2e3c 5286 ae3b e5f4 8d3c 7d06 943c
000000b0: 8f01 dd3c e687 e23c d2f4 a83c 0ae2 093c
000000c0: c329 833d 0d63 e93c 524b 293c 0640 103d
000000d0: 44de 8a3c 3e3a 83bb c4e3 573d f29b e43c
000000e0: f9c4 823d 8fc0 ad3b 0d6b 3d3d 6372 09bc
000000f0: 267f 893c 5dca 733c 1042 c13c 0955 4a3d
00000100: 5d8b ed3c e93a 7e3d 1901 4e3b 53c6 403d
00000110: cc84 893c ad2b aa3b b594 913d c8ef b03c
00000120: 49a6 543d 88fa 313d 4485 cf3c ac70 db3c
00000130: 41eb 5c3b c85c 6f3d d55f 203d 299a 7dbb
00000140: 1b18 693c 2a5d a53b bfe5 123d ba35 943c
00000150: 1621 df3c f56d 513d 691c 173c 9827 3f3d
00000160: 5e02 873c 62ff 643b 7573 6a3c 1437 693d
00000170: 2f1f 923c d146 473c a6a6 293d 5439 f33c
00000180: 2ecf 3b3d 0083 4f3d e778 823d 7187 903d
00000190: 62e2 f53c bdf6 323c 04ea 393d cdd2 eb3c
000001a0: 88e2 6a3c 9b76 73bc 115f b43c 4454 853c
000001b0: 5360 dc3c 7e00 073d c5a5 a43d f74b 353d
000001c0: 176f 193d 8f75 58bc ebd3 383d 96ee 243d
000001d0: 1de3 d93c a2e5 103d 37aa 9d3c f5f2 333d
000001e0: 029a eb3c 217b 5c3d 9829 d23c 9617 8b3d
000001f0: 3a1e 6d3d 88c9 243d ed5a 47bc 9d72 483d

2.weight f4 [128]
1.0564849 0.8828566 1.0782897 0.7861321 0.7427199 1.151237 1.2241057 0.8895216
0.7916208 0.71431804 1.0555993 0.9878071 1.0494277 1.2038575 0.7570612 0.8705265
0.87528455 0.84885836 1.1234399 0.8030404 0.68655956 0.82801235 1.0302831 0.97532684
1.0002369 0.82000303 1.1175028 1.0539888 1.0459126 0.98739135 0.75189894 0.8141539
0.8199659 0.75205755 1.118457 1.035274 0.8288713 0.76042324 0.8114152 0.8136683
0.8242107 1.0803734 0.88640195 0.77876854 0.8848572 0.81242126 0.7038911 0.74033695
0.93845594 0.72047544 1.1104751 0.7539587 0.7038414 1.1215144 0.88519263 1.0154549
1.0131671 0.82325256 0.97654223 1.1068103 0.97116286 0.7932286 1.0672742 1.1122897
1.2282803 0.7865481 0.9266525 0.79058224 0.84795976 1.077554 0.95622945 0.76265377
0.7903163 0.79352045 0.82585 1.0067762 1.0378418 0.88301337 0.96713287 0.7713695
0.87920046 0.81470394 0.7429892 1.0631574 1.0657367 0.72411937 0.7413343 0.86762667
0.79038465 0.97966844 0.84975255 0.7569518 0.76713926 1.0564599 1.1379662 1.0111655
0.85672295 1.0968025 0.8403731 1.0393119 0.96697813 0.9341848 1.0419351 0.94197816
0.7586967 1.0709367 1.1613035 0.8715889 0.80831677 1.0078406 0.9868807 0.9059466
1.1654582 1.1402792 0.7409388 1.1234654 0.74834657 0.90651405 0.99417174 0.9964951
1.1138242 0.74982786 1.0132382 1.0377014 0.7834623 1.0732919 0.8075996 0.81102014
00000000: e63a 873f e402 623f 6605 8a3f f43f 493f
00000010: e422 3e3f bc5b 933f 7faf 9c3f b0b7 633f
00000020: a9a7 4a3f 8cdd 363f e11d 873f ede0 7c3f
00000030: a653 863f 0118 9a3f c3ce 413f d3da 5e3f
00000040: a612 603f c84e 593f e1cc 8f3f 0e94 4d3f
00000050: 5ec2 2f3f 9ef8 533f 51e0 833f 05af 793f
00000060: c307 803f b8eb 513f 550a 8f3f 1be9 863f
00000070: 77e0 853f aec5 7c3f 737c 403f 646c 503f
00000080: 49e9 513f d886 403f 9929 8f3f dc83 843f
00000090: e930 543f 19ab 423f e8b8 4f3f 914c 503f
000000a0: 79ff 523f ad49 8a3f 3deb 623f 605d 473f
000000b0: 0086 623f d7fa 4f3f 3532 343f b986 3d3f
000000c0: a63e 703f 1471 383f 0c24 8e3f 7003 413f
000000d0: f32e 343f c98d 8f3f fc9b 623f 6dfa 813f
000000e0: 76af 813f aec0 523f acfe 793f f6ab 8d3f
000000f0: 219e 783f 0811 4b3f 719c 883f 825f 8e3f
00000100: 4a38 9d3f 375b 493f 1939 6d3f 9963 4a3f
00000110: e413 593f 4aed 893f 74cb 743f 473d 433f
00000120: 2b52 4a3f 2824 4b3f e86a 533f 0bde 803f
00000130: 00d8 843f 2a0d 623f 0596 773f 7978 453f
00000140: 4813 613f 7090 503f 8a34 3e3f 8b15 883f
00000150: 0f6a 883f e35f 393f 16c8 3d3f c81c 5e3f
00000160: a656 4a3f 8dcb 7a3f 6289 593f 98c7 413f
00000170: 3d63 443f 143a 873f e0a8 913f df6d 813f
00000180: 3252 5b3f 0664 8c3f b122 573f 2c08 853f
00000190: e18b 773f bc26 6f3f 215e 853f 7b25 713f
000001a0: f239 423f 7414 893f 98a5 943f 7320 5f3f
000001b0: d9ed 4e3f ec00 813f 37a4 7c3f 1eec 673f
000001c0: bc2d 953f abf4 913f 2aae 3d3f b7cd 8f3f
000001d0: a493 3f3f 4e11 683f 0a82 7e3f 4e1a 7f3f
000001e0: cb91 8e3f b8f4 3f3f cab1 813f 66d3 843f
000001f0: fc90 483f a161 893f d9be 4e3f 049f 4f3f

2.bias f4 [128]
0.0004044825 -0.14648928 0.059924982 -0.23659725 -0.22797556 0.061277136 0.056039494 -0.13632348
-0.22387822 -0.22979495 -0.03788271 -0.07429387 0.006457001 0.03899902 -0.23363048 -0.16967791
-0.11770018 -0.14091882 0.023978177 -0.20693253 -0.24570209 -0.21532264 -0.0046760757 -0.09606117
-0.06765632 -0.13262506 0.056028523 -0.055518888 0.01059509 -0.069805466 -0.21721844 -0.19971344
-0.14114177 -0.2258775 -0.0024513672 -0.0409075 -0.18108825 -0.18465574 -0.2028254 -0.19751208
-0.1558405 -0.033205625 -0.13679168 -0.18177314 -0.10849187 -0.13658401 -0.27430394 -0.21749322
-0.07046413 -0.20490368 -0.032359935 -0.18233006 -0.2749221 0.026017342 -0.14611177 -0.06972813
-0.053232946 -0.1519327 -0.0459682 0.056191914 -0.08459729 -0.19256628 -0.07461779 -0.022020249
0.08854759 -0.17802867 -0.02569424 -0.196993 -0.1605171 -0.024019776 -0.08358468 -0.19110608
-0.17255044 -0.18423481 -0.22355716 -0.06063878 -0.0022545133 -0.0867842 -0.13177767 -0.2578413
-0.1367368 -0.22158572 -0.23909508 -0.03659473 0.008220752 -0.20429167 -0.23773322 -0.1285905
-0.19066481 -0.014660595 -0.15778695 -0.19429657 -0.18146703 -0.04577562 -0.03718686 -0.064967
-0.15012518 -0.03732229 -0.14872265 -0.035558898 -0.06561588 -0.09089536 -0.039405923 -0.12691309
-0.2160742 0.04030164 0.033427484 -0.17111652 -0.18823227 -0.07131806 -0.06548176 -0.08442761
0.04423445 0.07232681 -0.23764732 -0.028177831 -0.21129733 -0.14037602 -0.06663884 -0.05298815
-0.025708165 -0.22899806 -0.006548115 -0.044927925 -0.18761922 -0.050363686 -0.21329457 -0.18151826
00000000: b910 d439 4901 16be e673 753d 8d46 72be
00000010: 6d72 69be bcfd 7a3d ab89 653d 6298 0bbe
00000020: 5540 65be 5e4f 6bbe e72a 1bbd 6227 98bd
00000030: 4095 d33b 70bd 1f3d d43c 6fbe 0cc0 2dbe
00000040: cb0c f1bd 064d 10be e26d c43c 1fe6 53be
00000050: 5499 7bbe 8a7d 5cbe c439 99bb b8bb c4bd
00000060: 668f 8abd ddce 07be 2a7e 653d c667 63bd
00000070: 0797 2d3c 2bf6 8ebd 836e 5ebe ae81 4cbe
00000080: 7887 10be 6e4c 67be 1ea7 20bb 9f8e 27bd
00000090: 336f 39be 6516 3dbe 76b1 4fbe 9b40 4abe
000000a0: a794 1fbe 9f02 08bd 1e13 0cbe bd22 3abe
000000b0: fc30 debd aedc 0bbe 9171 8cbe 8bb6 5ebe
000000c0: 7f4f 90bd 45d2 51be da8b 04bd bbb4 3abe
000000d0: 97c2 8cbe 5222 d53c 539e 15be 9fcd 8ebd
000000e0: ca0a 5abd 3f94 1bbe 2749 3cbd 7e29 663d
000000f0: 5841 adbd 1830 45be 36d1 98bd cf63 b4bc
00000100: 7058 b53d 264d 36be ba7c d2bc 88b8 49be
00000110: 985e 24be 1fc5 c4bc 722e abbd 50b1 43be
00000120: 10b1 30be 0da8 3cbe 2bec 64be 5f60 78bd
00000130: 75c0 13bb eabb b1bd baf0 06be c603 84be
00000140: bb04 0cbe 5ee7 62be 57d5 74be 5be4 15bd
00000150: 55b0 063c d631 51be 5670 73be 3aad 03be
00000160: a33d 43be fe32 70bc e792 21be aef5 46be
00000170: 7ed2 39be 377f 3bbd 4051 18bd 6b0d 85bd
00000180: 6aba 19be 42df 18bd c04a 18be 35a6 11bd
00000190: 9e61 86bd 5927 babd 1b68 21bd 81f5 01be
000001a0: 8e42 5dbe 5513 253d 42eb 083d 2b39 2fbe
000001b0: f6bf 40be 340f 92bd 4d1b 86bd 62e8 acbd
000001c0: 2f2f 353d 1420 943d d259 73be 32d5 e6bc
000001d0: 545e 58be bbbe 0fbe f279 88bd 1a0a 59bd
000001e0: ee99 d2bc 787e 6abe 9291 d6bb 5806 38bd
000001f0: 411f 40be 274a 4ebd e469 5abe ecdf 39be

4.weight f4 [128, 128]
-0.071119964 -0.03374443 0.19727625 -0.1339347 0.041728336 0.2691956 -0.11349574 -0.06543602
0.11909052 0.08548854 -0.01012968 -0.0012157032 -0.14850609 0.2114473 -0.02316029 -0.042404912
-0.07557398 -0.05632254 0.012153038 -0.019431882 0.03213016 -0.0698605 0.026679438 0.0892008
-0.13120274 -0.02454807 -0.021086868 0.021646703 0.04388024 0.05514578 0.07600251 -0.017881077
0.019610113 0.020811668 0.01641784 -0.03210024 -0.046553828 0.118832156 0.0072246236 -0.027560297
-0.018705927 -0.1431331 0.03819408 0.0634283 0.051935486 -0.004969235 -0.074194156 0.111389406
0.020796157 0.013730142 -0.067047186 0.002297189 -0.06839935 0.23760276 -0.031004846 -0.034728155
-0.047897607 0.009179057 -0.0059914966 0.17317842 0.038084272 0.048483264 -0.010701173 0.021853859
0.073532045 0.03837353 0.01111334 0.01648313 -0.03650336 0.0841969 -0.038890038 0.11482278
0.018768542 0.02017577 0.101220526 -0.05749322 0.014580372 0.0029933983 0.06486439 -0.09343473
0.058420703 -0.067014195 0.08251276 -0.0327668 0.17694913 0.09546493 -0.041364737 0.0042416994
0.06973517 0.054314572 -0.025378976 -0.10852802 -0.11630596 -0.082098834 -0.048098724 -0.034976717
0.004680333 0.037106805 0.030938068 -0.025071908 -0.07968236 0.061964385 -0.14349973 0.08525092
0.027552014 0.19978671 -0.020606844 -0.09604504 0.052946158 0.07247165 -0.09538869 0.12872174
0.10912977 -0.15703061 -0.1426573 -0.12260352 -0.083690815 0.09045779 0.022797143 -0.021742975
0.23078725 0.006876548 0.073096834 -0.107605174 -0.0006496882 0.012307074 0.0885707 0.050642576
0.018190037 0.13358594 -0.11519501 -0.042874843 0.0155398175 0.058643024 -0.062542275 -0.076248445
0.017801337 -0.044592656 -0.08492058 0.09120964 -0.11255456 -0.00622602 -0.04530752 0.01052075
0.0552153 -0.08610505 -0.05059868 0.049719375 -0.019198813 -0.042673606 0.06958007 0.015267314
-0.14945534 -0.07082167 0.0090634795 -0.06767794 0.056294087 -0.046281982 -0.01501554 -0.037506476
0.06140906 -0.090146825 -0.08410317 -0.0142881805 -0.00053537963 0.025131442 -0.012091683 -0.03587316
0.011765742 -0.036808975 0.025144096 0.03657813 -0.08240616 0.051047258 0.05987888 0.022538992
-0.0121092545 -0.016101804 -0.06641672 -0.021958144 -0.043089435 -0.02056516 0.037806656 -0.021002395
-0.0041301535 0.11387568 -0.060679212 0.02437468 0.06803959 -0.03533734 -0.05726575 -0.16892225
-0.021564836 -0.08284792 0.050402742 0.014718737 0.103819095 0.00025947308 -0.0196008 0.0752576
0.10580721 -0.016319385 -0.055313 -0.00383348 -0.1533541 0.014595862 0.03463037 0.0006020447
-0.10799477 -0.037226547 0.060127508 0.039510548 -0.099956185 0.011512056 0.05563533 0.03824066
0.0033671062 -0.10795489 0.0019076304 0.07421293 0.036403216 0.10622884 -0.08180072 -0.038628615
-0.01816739 -0.03707395 0.06599508 -0.116797514 0.105375305 0.103274085 0.0506571 -0.050206598
-0.029741796 0.0023200728 -0.095262 0.03691737 0.10678511 0.04455942 0.047613062 0.010216982
-0.013550633 -0.12237937 -0.07660777 -0.06992712 -0.04158003 0.037081193 0.027412426 0.044828393
-0.04942656 -0.17203744 0.0012600356 -0.010175523 0.11923774 -0.023754936 -0.0054111728 0.0058615375
00000000: 58a7 91bd 9937 0abd c902 4a3e 2e26 09be
00000010: 55eb 2a3d 01d4 893e 7470 e8bd 5203 86bd
00000020: bbe5 f33d 9e14 af3d f5f6 25bc 3b58 9fba
00000030: fb11 18be a485 583e a6ba bdbc c6b0 2dbd
00000040: 88c6 9abd 77b2 66bd 891d 473c 9c2f 9fbc
00000050: ea9a 033d 0613 8fbd d68e da3c e9ae b63d
00000060: 035a 06be 0919 c9bc 5ebe acbc 6d54 b13c
00000070: c4bb 333d 8be0 613d 34a7 9b3d 567b 92bc
00000080: 63a5 a03c 3b7d aa3c b57e 863c 8b7b 03bd
00000090: 3aaf 3ebd 465e f33d 89bc ec3b 22c6 e1bc
000000a0: 2c3d 99bc 7c91 12be 6571 1c3d b2e6 813d
000000b0: 4eba 543d f7d4 a2bb 1bf3 97bd 2120 e43d
000000c0: b45c aa3c 64f4 603c 0950 89bd 708c 163b
000000d0: f514 8cbd 234e 733e e0fd fdbc 1c3f 0ebd
000000e0: 4830 44bd c163 163c 5154 c4bb af55 313e
000000f0: 41fe 1b3d 6396 463d f953 2fbc dd06 b33c
00000100: f897 963d 902d 1d3d ba14 363c a107 873c
00000110: 8c84 15bd 6d6f ac3d 294b 1fbd 3528 eb3d
00000120: 7cc0 993c a847 a53c b54c cf3d 037e 6bbd
00000130: 83e2 6e3c e42c 443b 9fd7 843d b55a bfbd
00000140: 8c4a 6f3d bd3e 89bd 73fc a83d 7b36 06bd
00000150: 2732 353e 1e83 c33d 126e 29bd f4fd 8a3b
00000160: 50d1 8e3d f578 5e3d 92e7 cfbc f043 debd
00000170: d231 eebd 6f23 a8bd 2b03 45bd bf43 0fbd
00000180: 7b5d 993b 4efd 173d d571 fd3c 9a63 cdbc
00000190: 8130 a3bd 5ece 7d3d 98f1 12be 0998 ae3d
000001a0: c3b4 e13c e394 4c3e afcf a8bc 43b3 c4bd
000001b0: 12de 583d 046c 943d 255b c3bd a2cf 033e
000001c0: 6e7f df3d a2cc 20be c114 12be 8e17 fbbd
000001d0: 1766 abbd ef41 b93d 13c1 ba3c 531e b2bc
000001e0: 7e53 6c3e aa54 e13b cbb3 953d 1a60 dcbd
000001f0: d64f 2aba 9ca3 493c 8e64 b53d 976e 4f3d
00000200: 4603 953c c1ca 083e 5deb ebbd 889d 2fbd
00000210: b89a 7e3c ab33 703d 2a16 80bd 2528 9cbd
00000220: 1cd4 913c caa6 36bd d7ea adbd 1fcc ba3d
00000230: 0183 e6bd a403 ccbb 6194 39bd 395f 2c3c
00000240: 7029 623d d857 b0bd 9040 4fbd 8ba6 4b3d
00000250: d446 9dbc 85ca 2ebd ff7f 8e3d c223 7a3c
00000260: d20a 19be f40a 91bd fd7e 143c bb9a 8abd
00000270: a194 663d 2d92 3dbd bd03 76bc 64a0 19bd
00000280: 1188 7b3d e69e b8bd 483e acbd f918 6abc
00000290: b858 0cba 74e0 cd3c 321c 46bc bcef 12bd
000002a0: 19c5 403c 02c5 16bd fefa cd3c f3d2 153d
000002b0: 90c4 a8bd ee16 513d 8e43 753d b1a3 b83c
000002c0: e565 46bc eee7 83bc 7d05 88bd 91e1 b3bc
000002d0: 8c7e 30bd 4478 a8bc 27db 1a3d 370d acbc
000002e0: 3d56 87bb a737 e93d c48a 78bd 69ad c73c
000002f0: 5758 8b3d e3bd 10bd 7e8f 6abd f4f9 2cbe
00000300: bda8 b0bc 2cac a9bd 1b73 4e3d dc26 713c
00000310: 1b9f d43d e309 8839 db91 a0bc a820 9a3d
00000320: 73b1 d83d 3bb0 85bc e28f 62bd 1f3b 7bbb
00000330: db08 1dbe 7b23 6f3c 93d8 0d3d 89d2 1d3a
00000340: 5d2c ddbd dd7a 18bd 4348 763d d0d5 213d
00000350: d4b5 ccbd 109d 3c3c dfe1 633d 3da2 1c3d
00000360: abaa 5c3b 7417 ddbd 7409 fa3a f3fc 973d
00000370: 8a1b 153d 828e d93d 2387 a7bd 0a39 1ebd
00000380: c7d3 94bc dbda 17bd 6e28 873d 8933 efbd
00000390: 02cf d73d 5d81 d33d d27d 4f3d 6fa5 4dbd
000003a0: 11a5 f3bc 5d0c 183b b918 c3bd ab36 173d
000003b0: 27b2 da3d f083 363d ea05 433d 2165 273c
000003c0: 7903 5ebc 09a2 fabd 89e4 9cbd f335 8fbd
000003d0: d24f 2abd 73e2 173d 0690 e03c fa9d 373d
000003e0: 8173 4abd 952a 30be c727 a53a 3db7 26bc
000003f0: eb32 f43d b699 c2bc 3550 b1bb 2412 c03b

4.bias f4 [128]
0.09765785 -0.07168723 -0.0458271 -0.08860462 0.021806063 -0.0160099 -0.019841531 0.033966064
-0.039791547 0.030456454 0.017740728 -0.0834767 -0.07414157 -0.07923692 -0.05987963 -0.098818846
0.016385797 -0.029113118 0.13270788 0.0339366 0.049030516 -0.060035996 0.016811432 0.051543422
0.06790842 0.05189349 -0.02640868 -0.092076585 -0.046528433 0.0006413199 0.05055871 0.059068426
0.007271234 -0.09395544 0.04058909 -0.07602072 -0.0018094102 -0.03116045 0.075910136 -0.03744812
0.014942053 -0.067720465 0.10790622 -0.0795075 -0.060911763 0.13595492 0.09339407 0.016956324
-0.06845595 0.058411628 -0.1286245 -0.046779864 0.022191543 0.0080565745 -0.038682006 -0.06622389
0.068363346 -0.013913357 -0.046416666 0.10415834 -0.06708651 -0.014996218 -0.036530178 0.04714186
0.00077779806 -0.03277395 0.024764618 0.05210699 -0.10858306 0.044591166 -0.013994324 0.070088424
-0.0451799 -0.071120195 -0.014266886 0.09121161 -0.052080616 0.08656393 -0.05389141 0.030440275
0.021506451 -0.037755646 0.06174293 -0.017011888 0.02049408 0.08113553 0.031330787 -0.00934378
0.0841822 -0.010146903 0.07958748 0.019676434 -0.07154526 -0.021119898 -0.037938636 0.01705023
0.04609442 -0.08513762 -0.07911774 -0.02315714 0.050981324 -0.01890631 -0.073608845 -0.041476265
0.047983423 0.054545008 0.09182111 -0.008012079 0.01328725 -0.020421086 -0.016892584 -0.048340634
-0.06784852 0.075719066 0.05684034 -0.05201002 -0.10362244 -0.048312187 0.089391306 0.06572283
-0.07086082 -0.08363001 0.06768803 -0.06499204 -0.039250452 0.014971819 0.022569656 0.022739649
00000000: d700 c83d c1d0 92bd 32b5 3bbd 5776 b5bd
00000010: a1a2 b23c 3227 83bc b58a a2bc 0020 0b3d
00000020: 76fc 22bd d07f f93c 0155 913c d5f5 aabd
00000030: 89d7 97bd f746 a2bd 5844 75bd 8961 cabd
00000040: 823b 863c a27e eebc 93e4 073e 1b01 0b3d
00000050: 39d4 483d 4ee8 75bd 21b8 893c 321f 533d
00000060: 9213 8b3d 458e 543d 0457 d8bc a692 bcbd
00000070: 9994 3ebd 401e 283a a616 4f3d bcf1 713d
00000080: 8843 ee3b b66b c0bd bf40 263d c0b0 9bbd
00000090: bb29 edba 3344 ffbc c676 9b3d 3363 19bd
000000a0: 83cf 743c 07b1 8abd f0fd dc3d d4d4 a2bd
000000b0: 9d7e 79bd c437 0b3e 6445 bf3d fde7 8a3c
000000c0: a232 8cbd 0841 6f3d 24b6 03be 3e9c 3fbd
000000d0: 0acb b53c b9ff 033c 0671 1ebd 64a0 87bd
000000e0: 1502 8c3d d9f4 63bc 671f 3ebd f850 d53d
000000f0: a764 89bd b2b2 75bc aba0 15bd d317 413d
00000100: 25e5 4b3a fa3d 06bd 2bdf ca3c 246e 553d
00000110: cc60 debd 3aa5 363d 7348 65bc 858a 8f3d
00000120: 8f0e 39bd 77a7 91bd a8bf 69bc 27cd ba3d
00000130: 7c52 55bd 6e48 b13d 3dbd 5cbd e25d f93c
00000140: 4c2e b03c aaa5 1abd 28e6 7c3d 845c 8bbc
00000150: 33e3 a73c 622a a63d b654 003d a716 19bc
00000160: b867 ac3d 323f 26bc c3fe a23d 7930 a13c
00000170: 5286 92bd a303 adbc 8b65 1bbd edac 8b3c
00000180: 81cd 3c3d a25c aebd 7b08 a2bd 0bb4 bdbc
00000190: cbd1 503d 68e1 9abc 3cc0 96bd 04e3 29bd
000001a0: 448a 443d 966a 5f3d b50c bc3d 1845 03bc
000001b0: c4b2 593c 1f4a a7bc 5162 8abc d400 46bd
000001c0: 2af4 8abd 9912 9b3d 6bd1 683d 7508 55bd
000001d0: 0038 d4bd 00e3 45bd ca12 b73d b199 863d
000001e0: 7a1f 91bd 3646 abbd 06a0 8a3d 8c1a 85bd
000001f0: 15c5 20bd 5c4c 753c 00e4 b83c 8048 ba3c

5.weight f4 [128]
1.136512 0.9984586 1.1307442 1.1023408 0.9495265 1.2860211 1.2734605 1.1509899
1.3870698 1.0903274 1.2349267 1.0749872 0.93097216 0.94090253 1.0342115 1.0556976
1.2372313 1.1249356 1.046682 1.1468445 1.0224997 1.1914479 0.9456406 1.062533
1.1163399 1.0533711 1.1422734 1.1353294 1.1239808 1.2295061 1.0643194 1.0320328
1.0320166 1.0901074 1.3410053 1.047489 1.0527321 1.0562631 1.2942905 0.87084347
1.1199427 0.98243433 1.1522459 0.98645335 1.070357 1.1443282 0.8665464 1.031543
1.0452421 1.1739433 0.8160588 1.1987975 1.179653 1.1944731 1.1832213 1.0656857
1.2225065 1.1269869 1.1042204 1.1266192 1.1212265 1.163143 0.9479933 0.8998743
1.0673279 1.0711424 1.2031257 1.0532858 0.9810501 1.0667835 1.1482993 1.194525
1.2415897 1.2163091 0.8659712 1.017135 1.1042444 1.0590236 1.1744859 1.1315606
1.1113737 1.3700922 1.2275678 1.2059642 1.1679472 1.110097 1.0938439 0.9431621
1.183031 1.0971019 0.95239645 1.0144885 1.1521997 1.3616492 1.2191778 0.9870018
1.1213094 1.0974396 1.1070241 1.1403197 1.0648465 0.9990669 1.003895 1.1820472
1.0711889 0.9955398 1.2461013 1.029036 1.1559085 1.1318002 0.9464484 1.0283624
1.0077589 1.2395825 0.87464595 1.0778553 1.2064377 1.1009988 1.1848536 1.1670274
0.927662 1.0412197 1.1275432 0.91584027 1.0297314 1.1027303 0.95769715 0.8731869
00000000: 3a79 913f fc9a 7f3f 3abc 903f 8119 8d3f
00000010: 2b14 733f 579c a43f c100 a33f a353 933f
00000020: 818b b13f d98f 8b3f 1412 9e3f 2e99 893f
00000030: 3154 6e3f fdde 703f 0b61 843f 1921 873f
00000040: 985d 9e3f e4fd 8f3f adf9 853f cdcb 923f
00000050: 45e1 823f 5d81 983f 8115 723f 1501 883f
00000060: 3ae4 8e3f ddd4 863f 0436 923f 7952 913f
00000070: 9ade 8f3f 7560 9d3f 9e3b 883f a719 843f
00000080: 1f19 843f a488 8b3f 10a6 ab3f 1f14 863f
00000090: edbf 863f a133 873f 50ab a53f 99ef 5e3f
000000a0: 485a 8f3f d180 7b3f cb7c 933f 3588 7c3f
000000b0: 7501 893f 5979 923f fcd5 5d3f 9a09 843f
000000c0: 7eca 853f c643 963f 3be9 503f 3272 993f
000000d0: dffe 963f 7fe4 983f cc73 973f 6468 883f
000000e0: 187b 9c3f 1b41 903f 1857 8d3f 0f35 903f
000000f0: 5a84 8f3f dfe1 943f b0af 723f 2a5e 663f
00000100: 339e 883f 321b 893f 0600 9a3f 12d2 863f
00000110: 1926 7b3f 5d8c 883f 79fb 923f 32e6 983f
00000120: 69ec 9e3f 04b0 9b3f 4ab0 5d3f 7b31 823f
00000130: e157 8d3f 168e 873f 8e55 963f fad6 903f
00000140: 7e41 8e3f 2e5f af3f f120 9d3f 095d 9a3f
00000150: 4b7f 953f a917 8e3f 1403 8c3f 1273 713f
00000160: 8f6d 973f d66d 8c3f 41d0 733f c2da 813f
00000170: 487b 933f 854a ae3f 050e 9c3f 26ac 7c3f
00000180: 1187 8f3f e778 8c3f f7b2 8d3f fff5 913f
00000190: e44c 883f d9c2 7f3f a27f 803f 534d 973f
000001a0: b81c 893f b2db 7e3f 3f80 9f3f 74b7 833f
000001b0: cff4 933f d4de 903f 714a 723f 61a1 833f
000001c0: 3efe 803f a4aa 9e3f cce8 5f3f 2af7 893f
000001d0: 8d6c 9a3f 87ed 8c3f 48a9 973f 2761 953f
000001e0: 427b 6d3f b046 853f 5653 903f 8274 6a3f
000001f0: 3dce 833f 4426 8d3f a42b 753f 2d89 5f3f

5.bias f4 [128]
0.060294885 -0.024629662 0.080290325 0.040475685 -0.020958425 0.012331089 0.10095411 0.08112688
0.22484846 0.025915692 0.12881789 0.026872514 -0.09744803 -0.09776642 0.06404633 0.02657164
0.13268416 0.06331777 0.020508131 0.06447321 0.0071906 0.10168672 -0.075951606 0.038332734
-0.0067942496 -0.006398383 0.06012785 0.008885275 0.015462008 0.06174173 0.062126506 0.008565551
-0.043926343 -0.03648562 0.17694563 -0.0464404 -0.009481846 -0.01915905 0.11358818 -0.06351515
0.051330034 0.02765392 0.05667127 -0.0007409145 -0.019817881 0.060698707 -0.08532593 0.029533133
0.005465799 0.088731445 0.6511761 0.047622673 0.13042419 0.04394896 0.045000672 -0.016681485
0.108667016 0.057095442 -0.017610783 0.070702784 -0.00466658 0.09966943 0.0044621667 -0.066633224
0.014000562 0.029014852 0.13348426 0.112882845 0.046442494 -0.014856019 0.046296876 0.04932784
0.089212984 0.04115836 -0.15123814 0.022263082 0.05539981 0.013016988 0.05165756 0.075071365
0.050644286 0.13346308 0.017349772 0.118955284 0.041734703 0.033301435 0.038960524 0.021681359
0.08502654 0.036463335 -0.035855856 0.01893958 0.05345972 0.23650268 0.07060164 0.011151261
0.007343466 0.05093617 0.002130452 0.08196187 0.041511156 0.013901629 -0.028880984 0.104850225
0.009798997 -0.012910375 0.09229645 0.012127328 0.052530732 0.08148462 0.027392209 0.02493636
-0.045981992 0.041323062 -0.12572962 0.07030995 0.069857955 0.0489698 0.10824241 0.042863708
-0.02773791 -0.007823295 0.029859526 -0.110301085 0.009876544 0.038632352 -0.030091094 -0.0787005
00000000: c5f7 763d 25c4 c9bc 416f a43d d5c9 253d
00000010: 01b1 abbc 5608 4a3c 07c1 ce3d da25 a63d
00000020: ad3e 663e 254d d43c d6e8 033e bf23 dc3c
00000030: d592 c7bd c339 c8bd b92a 833d c5ac d93c
00000040: 5bde 073e bfac 813d ab00 a83c 880a 843d
00000050: 209f eb3b 2141 d03d 848c 9bbd c902 1d3d
00000060: 4ca2 debb 87a9 d1bb 9f48 763d 8b93 113c
00000070: 5d54 7d3c e5e4 7c3d 5d78 7e3d 8656 0c3c
00000080: 1cec 33bd f271 15bd 3c31 353e 4a38 3ebd
00000090: bf59 1bbc 71f3 9cbc eba0 e83d 3b14 82bd
000000a0: 713f 523d 798a e23c 2220 683d ee39 42ba
000000b0: 1c59 a2bc 359f 783d 5cbf aebd 78ef f13c
000000c0: 721a b33b d5b8 b53d 7ab3 263f fe0f 433d
000000d0: eb8d 053e d303 343d a052 383d 9ca7 88bc
000000e0: d08c de3d e9dc 693d 7d44 90bc 9fcc 903d
000000f0: 1cea 98bb 7c1f cc3d 5e37 923b 0077 88bd
00000100: 9d62 653c 8eb0 ed3c 19b0 083e 1f2f e73d
00000110: 7c3a 3e3d a966 73bc cba1 3d3d fd0b 4a3d
00000120: 4cb5 b63d ab95 283d 2cde 1abe 1161 b63c
00000130: e9ea 623d 3445 553c e196 533d 04bf 993d
00000140: 6270 4f3d 8caa 083e 1c21 8e3c d49e f33d
00000150: 02f2 2a3d 1667 083d 1295 1f3d 1b9d b13c
00000160: 6522 ae3d 945a 153d 97dd 12bd 2e27 9b3c
00000170: 94f8 5a3d c22d 723e 9897 903d c7b3 363c
00000180: 75a1 f03b 72a2 503d 0e9f 0b3b a0db a73d
00000190: 9a07 2a3d a8c3 633c d097 ecbc b7bb d63d
000001a0: f98b 203c 0a86 53bc ec05 bd3d b3b1 463c
000001b0: 772a 573d 69e1 a63d a065 e03c 5647 cc3c
000001c0: 9d57 3cbd 5f42 293d 44bf 00be aafe 8f3d
000001d0: b011 8f3d 8f94 483d 32ae dd3d db91 2f3d
000001e0: 9d3a e3bc 472d 00bc f79b f43c 89e5 e1bd
000001f0: 3ad1 213c f53c 1e3d 9981 f6bc ba2d a1bd

7.weight f4 [1, 128]
0.15898232 -0.028842557 -0.1888659 0.11404441 -0.016979506 -0.3575131 -0.23491667 -0.20527577
-0.42713344 -0.15323266 -0.2974068 0.10621892 0.04479017 0.034611594 -0.08043716 -0.11739113
-0.24060144 0.14978133 0.12111315 0.11800287 0.09423329 0.14759594 0.01565093 0.15037142
-0.15534957 0.08624194 -0.1863313 0.20967574 0.18190986 -0.27286667 -0.14514582 0.08205097
0.09918399 -0.14922985 -0.33064693 -0.10038156 0.11763086 0.118446305 -0.297108 0.019788519
0.17423904 -0.055468027 0.21940634 -0.04353088 0.15708764 0.19351837 0.0044958536 -0.12203226
0.120622605 0.16580415 -0.51203954 0.21860892 -0.18174335 0.23324366 0.19429918 -0.12614888
0.25557396 -0.1710895 0.13981985 0.16596155 0.19576992 0.18190868 -0.023005417 0.012627512
-0.14026658 0.093100786 0.15042987 -0.15215318 0.030337969 -0.12586778 0.15099274 0.21068132
-0.26778185 0.29415405 0.030703427 0.0686655 -0.17248538 0.14191973 0.18657686 0.1784117
-0.16775377 -0.32360995 0.29402858 0.22502948 -0.24685073 0.19080983 -0.16982375 -0.029921724
0.1922446 0.156866 0.016073557 -0.100741565 0.20142981 -0.36883232 0.20006177 0.034463745
0.11877146 -0.10704354 0.18660256 -0.1846692 -0.14282157 0.07827271 -0.043491576 -0.19809343
0.09769795 -0.015922196 0.2447686 0.10177746 0.22823396 -0.18871334 -0.048205074 0.10691004
0.04274783 0.23319833 0.029258117 -0.12260987 0.24071054 -0.13337606 0.20946807 -0.17703821
-0.025357986 0.089434974 0.20510611 0.040049236 0.0870447 -0.13638888 -0.008697762 0.010667293
00000000: 43cc 223e 3a47 ecbc 1066 41be 1e90 e93d
00000010: 9b18 8bbc f50b b7be ff8d 70be d033 52be
00000020: 3cb1 dabe 06e9 1cbe b445 98be 4e89 d93d
00000030: e675 373d e3c4 0d3d 3dbc a4bd c36a f0bd
00000040: 3960 76be 4760 193e 2c0a f83d 7dab f13d
00000050: 62fd c03d 6423 173e 6136 803c f7fa 193e
00000060: f513 1fbe 9d9f b03d a2cd 3ebe 3db5 563e
00000070: 9446 3a3e 2eb5 8bbe 1ba1 14be 570a a83d
00000080: fa20 cb3d b6cf 18be 8e4a a9be d994 cdbd
00000090: 73e8 f03d fa93 f23d 8a1e 98be 881b a23c
000000a0: b86b 323e 7132 63bd 0eac 603e 704d 32bd
000000b0: 95db 203e ae29 463e f451 933b 0dec f9bd
000000c0: fc08 f73d 90c8 293e 0615 03bf 04db 5f3e
000000d0: ee1a 3abe 6dd7 6e3e 5df6 463e 2c2d 01be
000000e0: 97da 823e 1632 2fbe ef2c 0f3e d3f1 293e
000000f0: e977 483e 4546 3a3e db75 bcbc a0e3 4e3c
00000100: 0ba2 0fbe a0ab be3d 4a0a 1a3e 0bce 1bbe
00000110: 5587 f83c 7ce3 00be d79d 1a3e d8bc 573e
00000120: b41a 89be 5c9b 963e c185 fb3c 7fa0 8c3d
00000130: 02a0 30be 6853 113e 010e 3f3e 8fb1 363e
00000140: a5c7 2bbe 34b0 a5be ea8a 963e 216e 663e
00000150: 70c6 7cbe a763 433e 47e6 2dbe 671e f5bc
00000160: c5db 443e 7ba1 203e b1ac 833c 9851 cebd
00000170: 9e43 4e3e 97d7 bcbe fedc 4c3e db29 0d3d
00000180: 743e f33d a539 dbbd be14 3f3e ec19 3dbe
00000190: d13f 12be 714d a03d 3924 32bd 01d9 4abe
000001a0: dd15 c83d 446f 82bc 9fa4 7a3e b370 d03d
000001b0: 2ab6 693e 123e 41be af72 45bd a7f3 da3d
000001c0: 5918 2f3d 8bcb 6e3e b8ae ef3c e21a fbbd
000001d0: d37c 763e bc93 08be cc7e 563e 8149 35be
000001e0: 8dbb cfbc af29 b73d 5607 523e ab0a 243d
000001f0: 7e44 b23d 87a9 0bbe 0f81 0ebc dfc5 2e3c
