models/hey_mycroft_v0.1.onnx (onnx, 503850 bytes, 7 tensors)

model/dense/MatMul/ReadVariableOp:0 f4 [64, 1]
00000000: e231 99be 2467 933e f62c 063e a065 8ebe
00000010: 07dc ce3d 9a4a 203e fb57 b03e 5be7 6fbe
00000020: 4c17 4c3e 624f 623e 25e5 ec3d 2ac3 6dbe
00000030: fe31 b8be 82bf c8bd fdac d23d 325d d83d
00000040: 8dde a53e 5e8f 3d3c e47d 8ebe 3394 0d3e
00000050: 07c4 bf3c 8f1a 8b3e c79e 073e 24d3 233e
00000060: 1df3 89be aff7 8dbe b6b2 13bd d034 6dbe
00000070: ed48 013e 6767 58be 58eb a83e 7c29 a8be
00000080: 2493 9b3d d9d9 84be 4bf9 98bd e20c a03e
00000090: 1960 d1bd 1248 0b3e 3fcc 353e 85b7 4cbe
000000a0: 0517 9a3e 308f 4dbe 5b49 a7be 3ca9 4fbe
000000b0: 4500 5bbe cc1a 5f3c 2046 e4bd 3078 7f3e
000000c0: 09c0 3a3e f7f2 96bd 5bae 8f3e a8e7 f5bd
000000d0: c409 b8be a45d 1e3e bab3 82be 0e51 ed3d
000000e0: e95b 8bbe b720 9a3e 0c37 9b3d c628 4d3e
000000f0: c7d3 aebe af74 2e3e 2d0d 91be ac9e 3fbe
-0.2992087 0.28789628 0.13103089 -0.2781191 0.10100561 0.15653458 0.34442124 -0.23428099
0.19930762 0.22100595 0.11567143 -0.2321898 -0.3597564 -0.09802152 0.10286901 0.105646506
0.32396355 0.011569826 -0.27830422 0.13826065 0.023408903 0.271687 0.13244162 0.15998513
-0.26943293 -0.2772803 -0.036059104 -0.23164678 0.12625475 -0.21133195 0.32992053 -0.3284415
0.07596424 -0.25947455 -0.07469424 0.3125983 -0.10223407 0.13601711 0.17753695 -0.19991882
0.30095688 -0.20074153 -0.32673153 -0.20279402 -0.21386822 0.013617229 -0.11146188 0.24948192
0.18237318 -0.073705606 0.2806271 -0.120070755 -0.3594495 0.15465409 -0.25527745 0.115877256
-0.2721856 0.30103084 0.07578859 0.20035085 -0.34145948 0.17036699 -0.28330365 -0.18712872

W__200 f4 [2, 256, 96]
00000000: 6fd0 86bd 40a4 fabd bc79 a9bc 6fef 4dbd
00000010: 3df7 80bd 4309 99bd d624 91bc 1dda 94bd
00000020: 81a0 c73d 416c d53c 1e24 b3bc 5b6d 953b
00000030: a16e 83bd dc4c 493d 6c4d 65bd 7d09 933d
00000040: 4ab2 003b 2afd 90bb f8af dcbc 138a b4bd
00000050: 98f3 26bd f393 c2ba b9e7 073e 78ee 81bc
00000060: 275f c63d 7c5f 193d 97a9 e93d 8053 cd3d
00000070: be09 c03d f97d a6bd 0581 a7bd 57eb f8bd
00000080: 6cd3 93bd 0aab 9ebd 2e66 40bc 3669 d6bd
00000090: 20b8 c93d 03fe 66bd eef5 4abb d136 98bd
000000a0: e548 ab3c 63a7 0cbe 3c21 d2bd bf5c e63d
000000b0: 8e96 ecbd 827a bbbc 682f de3d ec74 aebd
000000c0: cf0d 203b dcfc d9bc 19c3 99bd 0e23 09be
000000d0: ca40 e4bc f05e 2c3d 01e5 e63b 81eb 633d
000000e0: cd76 df3d 60bb 28bd 06e5 e43d e6db 0ebd
000000f0: 5bbc a0bd 46d8 a03c fd60 ba3d d844 c13d
00000100: f840 ba3c f69a 41bd ac0f 453d 5e6d 8c3d
00000110: f447 10bd 415c 5b3d 1261 a2bd 00c2 d2bd
00000120: 5853 b8bd bfa0 f23d 5b01 e6bd 8f71 dc3d
00000130: d68a bbbd 7a62 e1bd 0078 043e 20e9 3abd
00000140: fe9f 1cbd acce 053d e2de 7cbd f746 f93c
00000150: 2389 283d 9cbe dd3d 089f 0cbd aa5d ca3c
00000160: 6d62 eabd 3c31 e33d 19ea 0abd e4ae 0b3d
00000170: 7fc7 443d 5d93 9cbd 05ed 92bc 72d7 c03d
00000180: 7c74 093d d99a e7bd 2ce7 8c3d 429d 34bc
00000190: 453b f7bd 97d0 10bd 9c70 c73d 5673 663d
000001a0: ad7f ef3d f929 d9bd 5d7c d93d 03fc 22bd
000001b0: 911c ae3c de39 e0bd 7dda adbd a9b8 9d3d
000001c0: a3d4 2b3d 01ac 08be 12fd ef3d d3d3 b3bc
000001d0: f6e9 77bc 727c a33c e407 1f3d 205b b9bd
000001e0: 4c89 e23d bec8 943b ec49 87bd b8e6 d2bd
000001f0: 5415 18bd 123c cd3d dcc1 803d 0f8d cfbb
00000200: e41f 0bbe 2f7e 053d f585 cbbd 2ad8 103e
00000210: 3b6a 04be 2992 f63d 26ef de3d 3260 a93d
00000220: fb8c 013e a22d 5c3d 515d 123d 8fb7 903d
00000230: 02f9 8e3d 760b e4bd 4c38 0dbd b2b7 1dbd
00000240: 0fe8 6f3c e16d 89b9 2622 1bbd c569 e0bd
00000250: 3526 f93d 0d3b 28bd 2fa6 a8bd fbd0 4bbd
00000260: d52a 6ebc 4635 5f3d af07 973c 12ee 323d
00000270: 5fcb 8c3c 6972 043d 7418 913d c1f6 4b3d
00000280: 26b8 42bd 0f2c ed3d b9b4 c83d f18d febd
00000290: da17 b03c c400 6fbd 7f3e 85bd 45ce 52bd
000002a0: 6780 d63b d7ca 8abc 26ab 96bd ef96 f13c
000002b0: e193 ea3d 98ce 3b3d c16f b1bc 697f 8fbd
000002c0: bc66 d73d 5969 083e 627e c2bd ec3d 7cbd
000002d0: f816 2ebd ad3d f93c 9e2d c5bd bc68 953d
000002e0: 852e cfbc 13d1 113d b94a 9cbd e94c 51bd
000002f0: 61c6 073e cfc8 c4bd 2e24 a53c 5936 9f3c
00000300: 6973 553c 1e53 eb3c 18a0 283e 9772 553a
00000310: 5515 b2ba 378c adbd bbd2 d2bd 0a0d 8cbd
00000320: 1695 b23d 1b4c fe3d 8f2d bbbd 97a9 ca3c
00000330: d5ff 0d3c 7ab8 8abd 1e78 0e3d f812 bebd
00000340: 88b1 a13c 09f7 d1bd 3c3a fbbb 256a f63b
00000350: 3287 f43d ef7d 4ebd fed2 4b3d 9791 cd3d
00000360: e2c2 f1bd eda2 76bb 2303 d8bd 5b9d e83d
00000370: 3202 9a3c d31f a33c 3dea 0abe 42b8 893c
00000380: c109 f4bd 358a db3b 0a19 003e d139 c9bd
00000390: 54b6 01bd bbc7 e6bd 1ff9 07bc a432 80bd
000003a0: 8188 c3bd ba31 dd3d bb11 e73d 3adb dd3d
000003b0: 3f86 08bc 03dd bf3d fdb3 fbbd 32d7 c93d
000003c0: e59c 4fbd 352c ba3c 9300 d03d 5c33 e53d
000003d0: 52ce c3bc 50ca dfbd 3c67 393d 0b4d cc3d
000003e0: 8cf9 2dbd de3f 0c3e 4a9d dabd 53ec 983d
000003f0: 1bea 823d 80d2 e0bd 8d95 bc3c 6bc1 a7bc
-0.06582724 -0.122383595 -0.02068793 -0.05027717 -0.06297157 -0.0747247 -0.01771776 -0.07268164
0.097474106 0.026052596 -0.021867808 0.0045601553 -0.06417585 0.049145564 -0.05598204 0.07179544
0.0019637519 -0.0044247108 -0.026939377 -0.08815398 -0.040759653 -0.0014845118 0.13271989 -0.015860781
0.096861176 0.037444577 0.114093 0.10025692 0.09376858 -0.08129496 -0.081789054 -0.121542625
-0.0721806 -0.07747467 -0.011743112 -0.10469286 0.09849572 -0.05639459 -0.003096934 -0.074323304
0.020908782 -0.13735728 -0.10260245 0.11248159 -0.115521535 -0.022885565 0.10848886 -0.08518395
0.0024422293 -0.02660983 -0.07507915 -0.13392279 -0.027862925 0.042082727 0.0070463424 0.055644516
0.10911331 -0.04119432 0.11176495 -0.03487768 -0.07848426 0.019634377 0.0910053 0.09436959
0.022736058 -0.047266923 0.04811065 0.06856798 -0.03522487 0.053554777 -0.07928671 -0.10290909
-0.090002716 0.11847066 -0.11230727 0.10763847 -0.0915734 -0.11005111 0.12936401 -0.04563248
-0.038238518 0.0326678 -0.061735995 0.030429346 0.04114641 0.108273715 -0.03433135 0.024702866
-0.114445545 0.11093375 -0.03391466 0.034102336 0.048041817 -0.07645295 -0.017935285 0.09416093
0.033558354 -0.11308832 0.0688003 -0.011023821 -0.12071852 -0.035355177 0.097382754 0.056262337
0.11694274 -0.10603709 0.106194235 -0.03979112 0.021253856 -0.10948537 -0.08488939 0.07701237
0.041950833 -0.13346864 0.11718191 -0.021951592 -0.015131464 0.019956801 0.038825884 -0.09050584
0.110613436 0.004540532 -0.06605896 -0.10297912 -0.037129715 0.10021223 0.06286976 -0.006333954
-0.13586384 0.03259104 -0.0993766 0.1414496 -0.12931149 0.120395966 0.10885458 0.08270301
0.12651436 0.053754456 0.035733525 0.07066261 0.06981088 -0.111349985 -0.034477517 -0.038505264
0.014642729 -0.00026212542 -0.037874363 -0.10957674 0.121654905 -0.04107194 -0.08234822 -0.049759846
-0.014536579 0.054494165 0.018436281 0.043684073 0.017186819 0.032335673 0.07084742 0.04979587
-0.0475389 0.11580669 0.09800095 -0.12429417 0.021495748 -0.05835034 -0.06506061 -0.051466245
0.0065460685 -0.016942425 -0.07356863 0.029490916 0.11453987 0.04585132 -0.021659734 -0.070067234
0.10517642 0.13321437 -0.09496762 -0.06158249 -0.042502373 0.030424917 -0.096278414 0.07295367
-0.025290737 0.03559978 -0.0763144 -0.051098738 0.1325927 -0.09608614 0.020158853 0.019435095
0.013028004 0.028726157 0.16467321 0.00081423804 -0.001358668 -0.084740095 -0.102941 -0.068384245
0.08719842 0.1241686 -0.09139549 0.02473907 0.008666952 -0.06773467 0.03478252 -0.09280962
0.019737974 -0.10252196 -0.007666854 0.0075199776 0.11939849 -0.05041307 0.049761765 0.10037535
-0.11804749 -0.0037633732 -0.10547473 0.11358138 0.018799875 0.019912636 -0.13565917 0.016811494
-0.11915923 0.006699825 0.12509552 -0.09825481 -0.031668022 -0.11268564 -0.008299141 -0.06259659
-0.095475204 0.108005 0.11282679 0.1083283 -0.008332788 0.093683265 -0.122901894 0.098554984
-0.050686736 0.022726158 0.101563595 0.11191437 -0.023902092 -0.1092726 0.045264468 0.09975632
-0.042474315 0.13696238 -0.10674532 0.0746695 0.06392308 -0.1097765 0.02302053 -0.020477971

W__164 f4 [2, 128, 128]
00000000: b64d c93c 4917 2dbe 7d6e c8bd 1531 2f3a
00000010: 5f90 6a3d 283f 2fbd eb0d 12be 3abd e8ba
00000020: 2771 2fbe 8d16 b33d 688d 813d 6b66 923d
00000030: e838 bebd 518d 82bd af74 6f3d ab1e 0a3d
00000040: 0611 09bd 6730 fb3d cb1e fa3d 2b7a 68bd
00000050: 70b9 06bc 6852 9bbd 7239 0d3e 3ef6 ff3d
00000060: d028 3cbd e392 b63d 11e2 a6bd 667c 033e
00000070: 92c5 273c a51d 483d 9a1c d7bd 167b f83c
00000080: f3da 0ebe a379 263e cbd9 993d 95aa 42be
00000090: 790f ea3d 570b 13be ccc9 853c cb70 a43d
000000a0: 8ffe 8e3c 0d77 be3d e279 57bd 30af 743d
000000b0: f1f7 d43b a6a9 89bd 4941 bc3d 6d74 7fbd
000000c0: fc44 08be 62e6 b03d 3a28 7d3c bbb0 cf3c
000000d0: 2df8 283d 4179 40bd 94ec a6bd 9757 bc3d
000000e0: b085 f93d 30cf 4ebd 1ddf 4f3d 4ac6 0ebd
000000f0: 80b1 233d 5a87 22be 4de2 b6bd 8f9a 2b3d
00000100: c446 21bc 0de3 ebbc 14ac 983d c890 f3bd
00000110: 2ef7 283e 79a2 96bd 0d94 84bc 9685 dbbd
00000120: cb45 a33d 2237 cebd 21c5 853c 02cd 02be
00000130: 843d a2bc e5aa a5bd 9d68 edbc c5ab e3bc
00000140: cf3a 633d bfb3 26be cadb d73d 1cfc efbc
00000150: 8085 b43c 1ef0 dfbd aa56 debd 84bd 0ebe
00000160: 7231 553e 07ff 5dbd 6de7 d23d 8c64 0fbe
00000170: 2c91 0b3e 094c 8e3d b33b bfbd ce0a 2b3d
00000180: 6127 a23d fd23 e2bd 3e72 b3bb d89b d03d
00000190: e1bf 1bbc 8d25 123e 0a27 3c3d 152d 12bd
000001a0: aca6 afbb 722b 1c3e 5ea4 c93d d65d c33d
000001b0: 2e3b 2ebd eda4 103e 71c5 903d c44b 0e3e
000001c0: d50b 5dbd c177 21bc 8af0 30bd 6ad2 233e
000001d0: e09f 083e 88db 2abd ff3c 28be c21d d6bc
000001e0: 812c 853c aa6d cc3d 23a0 093e 2e06 87bd
000001f0: 1da2 8139 6d9a 803d ded9 8ebc 411f 1c3e
00000200: a6c0 1e3e d590 9fbd 6f08 dcbd c1db 8ebc
00000210: fbbe 983d f1ce b93d 3074 ffbd 1db5 cf3d
00000220: 5c57 b73d aa6e 0c3d f8f6 373e 2f7e 213d
00000230: 1ddc 77bd 9c06 b43d 9972 5b3b 1a36 dc3d
00000240: 73a4 efbd 4fdf e5bd 7fd5 df3d bb34 073e
00000250: 4620 02be a011 0abe ab1f 1cbe a435 a63d
00000260: ac36 ee3c afc7 1f3d 3b0e d9bd 8221 81bd
00000270: 38c3 573d ef96 b53c 732e a33c d9d2 003e
00000280: bad3 62bd b80f f9bd f86e 7dbd 81fc f2bd
00000290: 480d e6bd 6367 173d fe1d 6ebc d1d4 10be
000002a0: 65ae 9c3d ec87 713d 520a c23c 748a cb3d
000002b0: daaf 4a3e 4053 213e 9f9a e93d 3aff aa3c
000002c0: 4d7f 51bd 952f 84bd 932d d43d 938c c33a
000002d0: 8a9e fabb b183 a0bc f055 a9bd 526c 23be
000002e0: c483 cb3d 1889 a7bd 1bcd a63c 8758 e2bd
000002f0: 1278 aabc 5fa5 f33d 109f dd3c 1ca6 ef3c
00000300: 72b1 0fbd f35c d63d c596 a2bc c7a2 e9bd
00000310: a4ac 673b b6eb 613d 643d 6cbe 6aa5 a13c
00000320: 0258 e9bd 3bdd 56bd 0a6e 053e b71f e1bd
00000330: 0ee7 8f3d 0a4c 953d 175e 783d 0b47 a7bd
00000340: 0411 fc3d 70b8 bbbd 63b3 cb3d b4f9 f93c
00000350: 8a73 edbd 6806 bdbc 03ab bf3d b449 d23c
00000360: 0975 99bd 0691 55bd 35a4 85bd 649f a53c
00000370: d98d b9bd 8315 d03d d8d2 66bc 8fb5 e13c
00000380: c767 a63d e391 e8bc 0460 d7bd 6e77 163d
00000390: 24bb 5fbe 9d4d d1bc 2588 c33d 99a4 d63c
000003a0: e1c1 9d3c 39ae a63d 68b1 aabd 44a9 a7bd
000003b0: e2a3 423e 47b5 c03d 286d 133e 6d3c 80bd
000003c0: 9146 dc3b 7aab d33d fb9e 153e 9bfc d13c
000003d0: c2b4 ec3c 278b 1e3e 626e 813d 791f 95bd
000003e0: 0d50 dbbc 1811 cabd e35b 193e 3cb1 ac3d
000003f0: 5473 50bd bd98 43bb bb4a fc3d 25de a2bc
0.024573188 -0.16903414 -0.09786699 0.0006683034 0.05726659 -0.04278484 -0.14263122 -0.0017756589
-0.17133008 0.087445356 0.06325799 0.07148441 -0.09288198 -0.0637461 0.058460888 0.033720654
-0.0334635 0.122650914 0.122129045 -0.056757133 -0.008222923 -0.07584077 0.13791445 0.12498139
-0.04593736 0.08914735 -0.081485875 0.12840423 0.0102399755 0.048856396 -0.10503502 0.03033213
-0.1395071 0.16257338 0.07512244 -0.19010384 0.114287324 -0.14359795 0.016331576 0.08029326
0.017455367 0.09300051 -0.05260647 0.059737384 0.0064992835 -0.06721811 0.0919214 -0.06236689
-0.13307565 0.08637692 0.015451485 0.025352826 0.041252304 -0.046990637 -0.081505924 0.09196394
0.12183702 -0.05049056 0.050749887 -0.034857072 0.0399642 -0.15871945 -0.08929882 0.041895445
-0.009843532 -0.02879479 0.07454696 -0.11892849 0.16500542 -0.07355208 -0.016183877 -0.10718839
0.07972296 -0.100691095 0.01632935 -0.12773517 -0.019804724 -0.08089236 -0.028980548 -0.027791867
0.055476006 -0.16279505 0.10539968 -0.02929502 0.022036314 -0.109344706 -0.108563736 -0.13939482
0.20819643 -0.05419829 0.10298047 -0.140032 0.13629597 0.06948096 -0.093375586 0.04175835
0.07917667 -0.110420205 -0.005476265 0.10185975 -0.009506197 0.14272137 0.045935668 -0.035687525
-0.005360445 0.15250948 0.09845804 0.09539382 -0.042536907 0.14125414 0.07068909 0.1389609
-0.053966362 -0.009855212 -0.043198146 0.15998235 0.13342237 -0.041713268 -0.16429518 -0.026137237
0.016256573 0.09981854 0.13439994 -0.065929756 0.0002472558 0.062794544 -0.017437872 0.15246297
0.15503177 -0.077912964 -0.10743796 -0.017438771 0.07458302 0.09072674 -0.12473333 0.101419665
0.08952209 0.034285225 0.17965305 0.03942698 -0.06051265 0.08790323 0.0033485054 0.107525066
-0.11701288 -0.11224233 0.10929393 0.13203709 -0.12707624 -0.13483286 -0.15246455 0.081157
0.029078804 0.039008792 -0.10598417 -0.06305219 0.05267641 0.022166697 0.01991961 0.12580432
-0.0553777 -0.12161201 -0.061873406 -0.118645675 -0.11233002 0.03696383 -0.014533518 -0.14143683
0.076504506 0.058967516 0.023686562 0.09938517 0.19793645 0.15754414 0.11406445 0.020873655
-0.051146794 -0.06454388 0.10360255 0.0014919214 -0.007648294 -0.019594045 -0.082683444 -0.1595929
0.09937242 -0.081804454 0.020361474 -0.110520415 -0.020809207 0.118967764 0.027053386 0.029254012
-0.035081334 0.104669474 -0.019847283 -0.114080004 0.0035350705 0.055156432 -0.23070294 0.019732196
-0.11393739 -0.052457076 0.13030258 -0.10992377 0.07026492 0.07289894 0.060636606 -0.08167847
0.12307933 -0.09166038 0.09946325 0.030514576 -0.11594303 -0.023074344 0.0935879 0.02566991
-0.07493026 -0.05214026 -0.06525461 0.020217605 -0.090602584 0.10160353 -0.014088355 0.027552394
0.08125263 -0.028389877 -0.105163604 0.03673499 -0.21848732 -0.025549704 0.09547452 0.026201533
0.019257488 0.08138699 -0.08334619 -0.08186582 0.19007829 0.09409576 0.14397109 -0.06261525
0.0067222794 0.10335441 0.14611427 0.025633147 0.028894786 0.1548277 0.06319882 -0.072813936
-0.02677157 -0.098665416 0.14976458 0.08432242 -0.050891235 -0.0029845678 0.12318941 -0.019881317

R__201 f4 [2, 256, 64]
00000000: a6dc ecbd a80a 94ba ed7f e4bd fae4 bbbb
00000010: 8470 6f3d d163 d63c 02b5 9f3d 97f4 dcbc
00000020: 568a 58bc 9c3f d43d 505a 98bc aa98 8c3d
00000030: ba41 64bd 1c1c 52bc e2b1 af3d d6a3 cc3c
00000040: c610 7ebb d4ba b7bc 16ad 9dbc 22ba dabd
00000050: e2be 6e3d 566c 783d d4f0 4ebd fde0 1cbb
00000060: a09f 04bc 665a 6fbc 1652 85bd 0aaa c2bd
00000070: 5599 203d 4bf1 59bd b60f 11bc d330 063e
00000080: 3399 ecbd ae5d e1bc 1c6c d13c 3e3b 013d
00000090: 3760 f8bd 33f9 913d be01 16bc acf5 abbd
000000a0: 1024 9abb 7f03 433d 3808 83bd e3bf c339
000000b0: 4e41 10bd da51 c2bd bb44 423b 0763 a1bb
000000c0: 6bef 86bd 0258 39bd bee8 6fbd 224d 03bd
000000d0: 7282 f7bd 7039 efbd 45d5 49bc 9df9 3abe
000000e0: 5685 f73c 5744 013e a48a c43a 1960 343c
000000f0: 645f a53d 642c 4e3c 9d24 9c3d 7e5e 06be
00000100: 2a12 26bd b842 2c3d b085 283d 9044 d4bd
00000110: b0bd ccbd c41b 39bc 48d5 003d 1443 c43b
00000120: 2ef7 bc3a c45a a93a 5401 013a dd83 473d
00000130: 0ab7 a6bd b0e3 41bd 9be0 d83d 3fc2 39bd
00000140: 4597 663d b8d7 be3c cf6e c5bb 28ed b63b
00000150: 15f3 3bbd 6ace c83d eb45 433c 1230 a83c
00000160: 09a2 2ebd 7a71 89bd dec0 84bd 9715 863c
00000170: c7bc 843d edfb ccbc d90f 17bd e13a a83c
00000180: c574 cabc 7b22 bf3c 3661 58bd 009a 48bb
00000190: b48f eebd e68c 8b3d b3e8 833c fe7b 89bc
000001a0: 347f a1bd 2cbf 303c 667a bc3b e872 1d3d
000001b0: 4ac7 1bbd c3e8 8c3d 83f8 d439 75da be3d
000001c0: d526 93bc 193c 053d 0b2b 513d 0703 c83c
000001d0: c11a a0bd 9790 2abe ec91 b83c 3ce8 48bd
000001e0: 3db1 e83c ed17 f13c 3439 ce3c e852 ed3c
000001f0: 603a 92bd c0e8 873c 698f 89bc 6fe9 ccbd
00000200: 9293 37bd d5f5 93b9 d71f 133d 61c9 dcbd
00000210: d5ff 75bd 7f20 b23d 1ed4 893d 1e51 063c
00000220: 81c7 c23c cbda 61bd 65a4 ea3d f673 9fbd
00000230: a6bc 943c f5fb 2e3e cca8 f9bd f13a aa3d
00000240: e626 253c 3175 963d 00d9 b73c 51c8 403e
00000250: 2f8d c4bd 657e 17bb 3657 c3bd 7509 aabd
00000260: 56ad c63c c61c 71bd 1826 da3d 2a72 bebc
00000270: 095d 45bc 8e8a 7dbd c7be 3ebd 9b00 07bd
00000280: baed 83bb 07d9 923b 6381 e9bc da29 773c
00000290: 9e93 d7bc c061 7f3c 55b5 003d 4c49 8b3d
000002a0: 36f5 98bd 36ca 92bc 6ff8 793c e3c0 bebc
000002b0: f5c5 84bd 7353 9bbc d685 0bbb 606c c73c
000002c0: 432e 9dbd f490 95bc 517c a8bb e0f0 7c3d
000002d0: 2934 39bd 3a97 59bc 98c9 153e a5b7 653c
000002e0: cc71 0abd 801a 76bc e51b 0c3d 6d91 8bbd
000002f0: c3fc 20bd be92 793b 736d a5bd 97fe 1d3d
00000300: 8172 2abd 48f0 c83b 8dc3 203d deb3 343d
00000310: 464b 9c3d 2f5a 35bd 77b1 03bd 617d 8e3c
00000320: 672e 2b3d 5eca 8b39 25a5 5dbd 648c d13d
00000330: e8e6 863d 141d 0abd ed2f 913d 1ffc acbc
00000340: b2cd c2bd 6dfe 0ebc 8214 e9bd a608 e73d
00000350: 4c37 8b3d 007d bfbc 3311 5ebd b9c7 1b3c
00000360: a315 903c 2866 b63d 32bb 573b 422f 6bbd
00000370: c98c ab3d 7734 80bb ec30 9bbd bf6c 533d
00000380: 41a2 a0bc ef19 9d3c bffc 243d 02e0 5c3c
00000390: f89e eb3d 9fb9 28bd 5714 133d 3a0f d0bd
000003a0: 0405 d5bd 8c5f 3ebd 7741 813d 1f7d 643c
000003b0: bdcf f7bb 86ba a9bb e772 a3bd ad90 c2bc
000003c0: 6ba6 19bd ebdb 863d 0972 1c3c 6d9c 3dba
000003d0: 93ae 953d 54ae 16bd 4dbd 1abd ec77 e73d
000003e0: 4f5a a8bd 7711 a6bd a545 ab3d a2dd f2ba
000003f0: 3caf 9ebd 1188 9c3d 3b12 d4bd 7889 183d
-0.11565523 -0.001129468 -0.111572124 -0.0057340832 0.058456913 0.026170643 0.077981964 -0.026972098
-0.013216576 0.10363695 -0.018597752 0.06865056 -0.055726744 -0.012824085 0.0857885 0.024980467
-0.0038767322 -0.022427954 -0.019247573 -0.10680033 0.05828751 0.060650192 -0.05052264 -0.0023937814
-0.008094698 -0.014608955 -0.06509797 -0.095050886 0.03920873 -0.05320863 -0.008853843 0.13104562
-0.11552658 -0.02751049 0.025564246 0.03155064 -0.121277265 0.07127609 -0.009155689 -0.083964676
-0.004704006 0.047610756 -0.06398052 0.00037336265 -0.03521853 -0.09488268 0.0029643017 -0.004925135
-0.06588634 -0.045249946 -0.05857157 -0.03205598 -0.12085427 -0.11680877 -0.012318914 -0.18259282
0.030214947 0.12623726 0.0014994931 0.01100924 0.08074835 0.012583826 0.07624171 -0.13121983
-0.040544666 0.042055815 0.04114312 -0.1036464 -0.099971175 -0.011298124 0.0314534 0.0059894416
0.0014416927 0.0012920727 0.00049211574 0.04870974 -0.08140381 -0.04733628 0.10589715 -0.045351263
0.056296606 0.023296222 -0.0060251723 0.0055824704 -0.045886118 0.09804995 0.011918525 0.020530734
-0.042634998 -0.06711097 -0.06482099 0.016367717 0.06481319 -0.025022471 -0.036880348 0.020535888
-0.024713883 0.023331871 -0.052827083 -0.003060937 -0.11648503 0.068139836 0.01610217 -0.016782757
-0.0788559 0.010787766 0.0057518957 0.03843966 -0.038031854 0.06880333 0.00040620947 0.09319011
-0.017962852 0.032528017 0.05106644 0.024415506 -0.07817603 -0.16656719 0.022530518 -0.0490496
0.028404826 0.029430354 0.025173761 0.028970197 -0.071400404 0.016590476 -0.016792016 -0.100054614
-0.04481847 -0.00028221184 0.035919037 -0.107805975 -0.060058434 0.086976044 0.06729911 0.008198051
0.023776772 -0.055140298 0.11457137 -0.0778579 0.01815636 0.17088301 -0.121903986 0.083120234
0.010080075 0.07346571 0.02244234 0.18826415 -0.09597241 -0.0023116108 -0.095381185 -0.08302585
0.024252575 -0.05886533 0.10651797 -0.023247797 -0.012046107 -0.061899714 -0.04656866 -0.03295956
-0.004026142 0.004481438 -0.02850408 0.015085662 -0.026315507 0.01558727 0.03142293 0.0680109
-0.07468645 -0.017918687 0.015256985 -0.023285335 -0.0648307 -0.01896069 -0.002128949 0.02434367
-0.07674839 -0.018257596 -0.005141773 0.061753154 -0.04521576 -0.013280684 0.14627683 0.014020835
-0.03379993 -0.0150209665 0.03420629 -0.06814847 -0.039303552 0.003808185 -0.080775164 0.038572874
-0.041613106 0.0061321594 0.03924899 0.044116847 0.07631545 -0.04427546 -0.032151666 0.01739377
0.0417923 0.0002666292 -0.054112572 0.102318555 0.065870106 -0.033719137 0.07089219 -0.021116314
-0.095118895 -0.008727652 -0.11380865 0.112809464 0.067976564 -0.023375034 -0.05421562 0.009508067
0.017588442 0.089062035 0.0032917974 -0.057418115 0.08376462 -0.0039125043 -0.075776905 0.05161738
-0.019608619 0.019177405 0.0402801 0.013481142 0.1150493 -0.041192647 0.03590807 -0.10159154
-0.10401347 -0.04647784 0.063113146 0.013945847 -0.007562606 -0.005179706 -0.079809 -0.023750627
-0.037512224 0.06584915 0.0095486725 -0.0007233087 0.07308688 -0.036787346 -0.037778188 0.1130217
-0.0822035 -0.081088 0.08362893 -0.0018529186 -0.07748267 0.0764314 -0.1035504 0.037240475

R__165 f4 [2, 128, 32]
00000000: ce1b 79bb af53 463b 634f ac3c 49e1 89bc
00000010: fbbc 4e3d 9f2f 83bd 0989 51bc 54ec 8d3d
00000020: 6677 79bd 273a c3bd a874 8abc 0b34 e13d
00000030: 78dd c43d f5c3 1d3d cb59 223d f1ce aa3d
00000040: 05ae 5fbc 6859 d4bd 5a3d c03d e283 c8bc
00000050: d421 74bd cb1b 15be 59b9 0cbd 9170 753d
00000060: 5443 14bd 4884 99bd 105a ef3c 64f4 263d
00000070: 6c66 643d d89f 213e 74e9 a53d 0e20 4fbd
00000080: 5f2f c43d 35bb 443d 3b18 7f3d b99d 0cbe
00000090: 3462 b2bc 5ea5 9fbd 65eb 0b3e cd6b 4a3e
000000a0: 1146 4b3c 4bb5 cf3d 9578 4abe 26f2 ffbc
000000b0: 6a8c 1d3d e3e7 25bd f0ed 3abd 4e77 b9bc
000000c0: 60c5 f8bc 57c9 be3d 9c6f 22be aa19 dabc
000000d0: cc92 023d a209 09be 597b 2cbe bc2d 7abb
000000e0: 8827 083d c0b3 7b3d 2955 123e 9252 603d
000000f0: 4e78 79be 8016 f63d ec25 ddbd 1929 b83d
00000100: e585 113d 82f8 a0bd 9810 40bd 1ad1 543d
00000110: 6d68 e7bd 9e58 82bd 8037 44bd b6eb b53c
00000120: 7c68 453d bf3e 30bd b487 ec3c e53d a13d
00000130: 2a3b 463c 7203 ef3d 6749 da3c 86b8 de3b
00000140: 3d67 f83d a0af 0cbd 50ba a1bd 992d 07be
00000150: 8e8e 7b3e 989c 213c fa5c 5c3d 5ebb a13d
00000160: d340 973c 7f93 42bc 70e5 e63d 9430 8f3d
00000170: 1935 13bd c949 81bc 9518 07be 3805 9f3d
00000180: 9698 4a3d 97cc a33c fd87 a23c 0031 49bb
00000190: 3dd4 a73d ce19 3abd ca11 7f3c 3d85 073e
000001a0: 4072 0fbd 0dc9 71bd 17a2 053e 59cf 653d
000001b0: 9623 03bc 9771 b53d dac1 80bb 10fc 3ebc
000001c0: cf67 88bd 7193 0a3e 73af 54bc a292 0fbd
000001d0: 26d0 743d c2a2 e8bd 63b1 59be a066 8ebd
000001e0: dee3 673d 6bf9 513b 391f 95bb f4d2 50be
000001f0: b368 a4bd 4723 823d 31d2 44bd 6cac f7bd
00000200: 60b1 773d 9f37 493e beb0 46bd 434c 07be
00000210: 62b6 1ebd a786 0cbe ec1a 663c 62fe 883d
00000220: f590 3b3e 14b9 f4bd 95c6 07bc 79a4 ac3c
00000230: 3d8f 353e 87f5 e3bd 9b49 193c f750 53be
00000240: eebb 28be 1f80 093e 1c26 693d 5657 923b
00000250: dcbf 713c c404 14be c4dc 81bd 1536 9c3c
00000260: 8b88 ddbc 074c 9d3c cdd8 af3c 155f 203e
00000270: 4539 95bd 4042 4dbd f271 f4bd bb08 3d3e
00000280: 2d5b a2bd fb6c 95bd 490d 4e3b ae2e a53d
00000290: 2a72 8dbc 33c0 583e 1622 683d e9c6 8d3d
000002a0: fdc1 d83d 80c1 173e 8bdb 083d b7f0 353d
000002b0: be54 82bd 27b4 183b daae b23d 08d7 da3d
000002c0: 0f31 b4bd fa86 ccbd 8586 8bbd f364 e53d
000002d0: 1b34 cf3d 9fd1 b1bb abe6 dd3d 5974 a73d
000002e0: 17a3 d9bd 424d adbd 6668 7ebd 9fbf 91bd
000002f0: 992c c43d 5be8 ecbd 9362 8fbd 25bd eebc
00000300: 5b1a fabd c61e b3bd 8031 0bbe 558b 67ba
00000310: 9e59 b2bd 4d89 15bc 6507 8bbd b1e8 2dbd
00000320: 0ac5 3ebd fbe8 a53d 46c8 9ebc c6d5 2dbd
00000330: 18e9 ac3b 91df 3a3e af98 11be 1026 b0bd
00000340: 3396 1fbe 893d a63d 7537 83bd fd4d b7ba
00000350: c6ad 5f3b f482 03be e0b0 68bd aa48 99bd
00000360: 7cbb 9e3d 6a4b 023e 26ef 263d 8b7b ed3b
00000370: 6884 2bbe dc33 22be fb9e 6ebe 69c0 62bd
00000380: de6b ee3c 12ea cbbd c8df b1bc 8f04 fc3d
00000390: 5309 06be 0c85 aebc 83a0 ccbd 1f94 333c
000003a0: f68f 59bd 2a29 86bc 9742 dbbd 8d5c 873c
000003b0: f2eb 873d 6f1c 8fbb c5dc 92bd dfe7 533e
000003c0: 1cd0 163e ad53 1fbd 0963 d8bd d6c2 95bd
000003d0: 4965 a4bd 23f5 3abe 1b77 2f3d 7e68 d7bc
000003e0: 8847 343e cdc0 bf3c 66ba 173c 63ba 1fbe
000003f0: aa3a f43c 4b69 3f3d 34ab 903c 9bbf 1abd
-0.0038010958 0.0030262282 0.021033948 -0.016831057 0.050473195 -0.064055674 -0.012789019 0.06929842
-0.060904883 -0.09532576 -0.01690133 0.109962545 0.09612554 0.038516957 0.039636414 0.08340252
-0.013652329 -0.103686154 0.09386702 -0.02447695 -0.059602574 -0.14561383 -0.03435645 0.059921805
-0.03619702 -0.07495934 0.02921775 0.040760413 0.05576174 0.15783632 0.08101168 -0.05056768
0.09579348 0.048030097 0.062278967 -0.13732041 -0.021775343 -0.07795213 0.13664015 0.19767685
0.012406842 0.10142001 -0.19772561 -0.031243395 0.038463987 -0.040504348 -0.04563707 -0.022639897
-0.030367553 0.09315746 -0.15862888 -0.026623566 0.031878278 -0.13382581 -0.16843928 -0.0038174232
0.033240825 0.06145072 0.14290299 0.054766245 -0.24362299 0.1201601 -0.10798249 0.08992214
0.035528082 -0.07859899 -0.046890825 0.051957227 -0.112992145 -0.06364559 -0.04790449 0.022207122
0.048195347 -0.04302859 0.028873302 0.078731336 0.012099067 0.11670579 0.02664633 0.0067968993
0.12129066 -0.034347177 -0.078968644 -0.13200988 0.24566099 0.009863995 0.053799607 0.078970656
0.018463528 -0.011875986 0.112742305 0.069916874 -0.03593931 -0.015782254 -0.13192971 0.07764667
0.049461924 0.019995017 0.019840235 -0.0030699372 0.08194778 -0.045434766 0.015568206 0.1323442
-0.035021067 -0.059029628 0.13050114 0.056105945 -0.00800409 0.08859556 -0.003929359 -0.011656776
-0.06660425 0.13532807 -0.0129812835 -0.03505195 0.05976882 -0.113591686 -0.21259074 -0.06953168
0.056613795 0.0032039534 -0.004550841 -0.20392972 -0.08027782 0.06354385 -0.048052017 -0.12093434
0.060471892 0.19650124 -0.0485084 -0.13212685 -0.038748153 -0.13723241 0.014044505 0.06689145
0.18317015 -0.11949363 -0.008287092 0.02107452 0.17730422 -0.11130815 0.009355928 -0.20636354
-0.1647794 0.1342778 0.05692111 0.0044659777 0.0147552155 -0.14454943 -0.06340936 0.019068757
-0.027042648 0.019201292 0.021465683 0.15661271 -0.07286314 -0.05011201 -0.11935796 0.18460362
-0.07927547 -0.07296177 0.0031441024 0.08065544 -0.017266352 0.21167068 0.056673132 0.06922705
0.10583875 0.14819908 0.033412497 0.044419017 -0.063638195 0.0023300739 0.087247565 0.10685545
-0.0879842 -0.09986682 -0.06812767 0.11200895 0.1011736 -0.0054266 0.10835012 0.081764884
-0.1062681 -0.084620014 -0.06211128 -0.07116627 0.09578819 -0.11567756 -0.070012234 -0.029142926
-0.12212058 -0.08746104 -0.13593102 -0.0008832713 -0.08708499 -0.009126973 -0.0678852 -0.04245824
-0.04657463 0.08101078 -0.019382607 -0.0424402 0.0052768104 0.18249346 -0.142184 -0.0860101
-0.1558464 0.08117206 -0.06407062 -0.0013985034 0.0034130677 -0.12842923 -0.056809306 -0.07484563
0.077506036 0.1272408 0.040755413 0.0072473935 -0.16749728 -0.15840095 -0.23302834 -0.055359278
0.02910417 -0.09956755 -0.021713153 0.12305557 -0.13089494 -0.021303676 -0.09991553 0.010960608
-0.053115807 -0.01637705 -0.107060604 0.016523624 0.066368 -0.004367403 -0.07171015 0.2069392
0.14727825 -0.03889816 -0.105657645 -0.07312553 -0.08027131 -0.18257575 0.042838197 -0.026294943
0.17605412 0.023407364 0.009260749 -0.15598445 0.02981313 0.046731275 0.017659761 -0.037780385

B__202 f4 [2, 512]
00000000: 5b23 23bc a3a3 4b3b 1bc3 153c 792f 41bc
00000010: 905f 8c3b e238 e83a c092 3fbc 3818 383c
00000020: 0404 90bb cef8 daba a8be cb3b cd12 6b3c
00000030: 8e34 c4bb de02 813a 301a 943b 6461 dd3b
00000040: 682b 9c39 b66e 243b 83ce 60bb f3ce 203c
00000050: 310c 053b 1861 e43b e379 f03b 8433 11bc
00000060: 15ae 33bc c212 1c3c da51 35bc 693a dabb
00000070: 6684 803c 3798 b7bb 9021 953b 68e9 a63c
00000080: 2cfc fdba a62a 573b 193c 1b39 9791 643c
00000090: 98b0 083d a8d8 823b 2c96 4d3c 195a 0c3b
000000a0: 5680 b8bc 03b6 2b3c f2ad 703c c500 1d3c
000000b0: ad88 8a3c d7ef 81ba 6a32 db3c cb88 0d3a
000000c0: ea2f 983c 9999 873c 6a16 91bb 6bab 92bc
000000d0: d770 8c3a f771 ad3c 32b3 b1bb 88bf 403c
000000e0: e168 233b 5816 833b d41d 883c 22cf 0a3c
000000f0: 4bce 0e3c 16ab 69bc 54d1 ebba 7e97 feba
00000100: 231e bebc c3d1 7f3c ed1b d83a eb65 8bbc
00000110: 410f aa3a f603 aeba 7607 a6bb 07a7 45bc
00000120: 1404 0738 528b e2b9 3f2a 043d 2891 f2b9
00000130: 89cd f43c 4cd4 0d3b bb9c 8d3b f396 da3b
00000140: f3f3 87bb 386b 6c3c 9183 82bc fe33 dc3b
00000150: f5ff 6c3c 7643 673c 350e f8bb 77a8 813c
00000160: 5edf d139 e3a7 96ba 1c2a b23a 4bf5 3b3a
00000170: f588 983c ef3b d4ba 2b8b 06bb ce2a c53b
00000180: ceca 69ba bc6a 1e3c 5ef7 9c3c 8f96 193c
00000190: b020 ab3c f046 96bb 62f6 a8bb 1377 0d3c
000001a0: a231 0a3b 8c3b 1d3c 4200 a63c 5ba6 433d
000001b0: 50ba 8a3c df4e 53bc 6599 203c 26b5 df3c
000001c0: bfdd 003d d2a7 1a3c 183b 9c3b 4a0e 97bb
000001d0: 4db4 d53b ba12 f53c 1782 833b 4831 f03b
000001e0: fdc2 503b 739b 1a3c f4aa 0c3c 9b91 1a3c
000001f0: c1d1 343c 7578 23bb 2c39 8bbc 691d 813c
00000200: 8b0c 7e3f b226 7f3f 78a8 803f 1d7f 7f3f
00000210: fa37 803f a969 7f3f b85a 803f ea59 803f
00000220: b85d 7f3f a542 7f3f 0c0f 843f efab 803f
00000230: a085 803f 2e00 803f 2e53 803f 9942 813f
00000240: 5435 7f3f eb88 803f 3df4 803f 1e13 7f3f
00000250: c89b 7d3f 88d3 803f f922 813f d9a7 7e3f
00000260: 046b 7e3f 8b50 803f 3874 7e3f a914 803f
00000270: aa6e 813f 2bb1 7e3f 8dc6 803f 4fc3 813f
00000280: f18f 7e3f d75f 803f f6e3 813f 1cf3 7e3f
00000290: 3000 803f 4638 7e3f 0c79 813f 6b53 803f
000002a0: 2443 7e3f a526 7e3f af87 803f 1010 823f
000002b0: 171f 813f f1dd 7f3f 25fb 803f 7faf 823f
000002c0: ece6 813f 7ded 7f3f d99a 7d3f 9fd1 7d3f
000002d0: 9ab4 803f 1282 833f 363d 7f3f 1f82 833f
000002e0: 54ad 7a3f 0355 7f3f 7eeb 813f a274 803f
000002f0: bbc6 7e3f 1688 803f e12f 7e3f 7f28 833f
00000300: 6ba2 14bc 935d 28bc a1a8 c83a c8c9 1a3c
00000310: 2c38 bb3a 973c 103c f24d 8d3b 5172 bcbb
00000320: 954d c139 369a 063b 6682 f63b e6ce b3bb
00000330: f2cc 6c3c 765f f43b 450f 353b 3833 703b
00000340: e4fd 9f3a 7b0a 4a3c c62a bdba 2a91 3e3c
00000350: 758f cfbb 3e3d 24bc f6e7 4f3b ecf4 c23b
00000360: c7f6 92bc 4e70 9dba b273 bd3b d4b2 14bc
00000370: 7879 5c3c 31fd e039 64f6 e2bb bd12 a3bc
00000380: 429e 2d3c 6d6e 1d3b 510a 413b 1866 14bc
00000390: 4a1c 093c 65ea d83b e79b e03c f77e 383c
000003a0: af80 37ba 3ffc 2db8 d9db 703c 6c06 46bc
000003b0: 9c99 6bbc c783 0a3b 4492 9ebc abc7 a5bb
000003c0: d022 d4ba fb2a 763c 952b c93b bd05 c03a
000003d0: b463 a93a b17c ce3c 90d3 a43b 8669 b93b
000003e0: 4c2a 6539 e185 3cbc 74ae 4d3c 69b3 22bc
000003f0: 91a9 1239 a6f4 47bb ca24 b83b 250f 603b
-0.00995716 0.0031072877 0.009140755 -0.0117911035 0.004283853 0.0017717148 -0.011692703 0.011236243
-0.00439501 -0.001670623 0.0062177964 0.014347744 -0.0059877103 0.0009842773 0.0045197234 0.0067559946
0.0002978698 0.0025090403 -0.0034302778 0.009814966 0.0020301456 0.0069695823 0.007338749 -0.00886238
-0.010966797 0.009525957 -0.011066878 -0.006659795 0.015688132 -0.005602862 0.00455112 0.020374969
-0.0019377521 0.0032831817 0.0001480434 0.013950727 0.033371538 0.0039931126 0.012548011 0.0021416007
-0.022522133 0.010480407 0.014689909 0.009582703 0.016910875 -0.0009913397 0.026757438 0.0005399107
0.018577535 0.016552733 -0.004427721 -0.017904004 0.0010714781 0.021172507 -0.005422973 0.011764415
0.002493434 0.0040004663 0.016615786 0.008472236 0.008716176 -0.0142619815 -0.0017991462 -0.001942381
-0.02320773 0.015613976 0.0016487815 -0.017016372 0.0012974517 -0.0013276327 -0.0050668074 -0.012063748
3.2190306e-05 -0.0004320988 0.03226685 -0.00046265987 0.029883163 0.0021641431 0.0043216622 0.0066708266
-0.004148954 0.01442986 -0.015931876 0.006720065 0.014465322 0.014115205 -0.007570053 0.0158274
0.00040030008 -0.0011494126 0.0013592872 0.00071700354 0.018619994 -0.0016192178 -0.0020529728 0.0060170656
-0.0008918465 0.009669002 0.019160923 0.009374275 0.02088961 -0.004586093 -0.0051563242 0.008634347
0.0021086712 0.009596717 0.020263795 0.04776607 0.016934544 -0.012897222 0.009802197 0.027308058
0.031461474 0.009439426 0.0047677867 -0.0046098577 0.0065217377 0.029916156 0.0040133107 0.0073300935
0.0031854503 0.009436476 0.00858568 0.009434129 0.011036337 -0.0024943624 -0.016995035 0.015761094
0.9923789 0.9966842 1.0051413 0.99803334 1.0017083 0.997706 1.0027685 1.002744
0.9975238 0.99711066 1.0317092 1.005247 1.0040779 1.0000055 1.0025384 1.0098449
0.9969075 1.0041784 1.0074536 0.99638546 0.9906583 1.0064554 1.0088798 0.99474865
0.9938204 1.002458 0.99396086 1.0006305 1.0111897 0.99489087 1.0060593 1.0137728
0.9943839 1.0029248 1.0147693 0.99589705 1.0000057 0.99304616 1.0115066 1.0025457
0.993212 0.99277717 1.0041407 1.0161152 1.0087613 0.9994803 1.0076643 1.0209807
1.0148597 0.99971753 0.99064404 0.9914798 1.0055115 1.0274069 0.99702775 1.0274085
0.9792073 0.9973909 1.0149992 1.0035594 0.9952199 1.004153 0.9929181 1.0246733
-0.009071927 -0.010276216 0.0015309044 0.009447522 0.0014283708 0.008803508 0.0043122703 -0.0057509323
0.00036869632 0.0020538694 0.007522869 -0.0054873107 0.01445316 0.007457669 0.002762751 0.0036651623
0.0012206403 0.0123316 -0.0014432303 0.0116312895 -0.00633424 -0.010024367 0.0031723953 0.005949607
-0.017939938 -0.0012011619 0.005781614 -0.009075839 0.013456695 0.00042913252 -0.0069263447 -0.019906396
0.010596814 0.0024022118 0.0029455612 -0.009057544 0.008368561 0.006619739 0.02741809 0.0112607395
-0.00070000713 -4.1481337e-05 0.014700853 -0.012086492 -0.014379885 0.0021135674 -0.019356854 -0.0050592027
-0.0016184691 0.015024896 0.0061392286 0.0014650148 0.0012923391 0.025205942 0.005030103 0.0056583313
0.00021854899 -0.011506529 0.0125538 -0.00993047 0.00013986813 -0.0030510812 0.00561962 0.0034188714

B__166 f4 [2, 256]
00000000: 77da 323c ee1f aeba 1b0c e33b 0dda a73b
00000010: 6617 93bc 0db8 f2bb fc6d 8eba 8d84 7b39
00000020: 8b20 1e3c b9e9 b1ba a90a 183c d2da 8a3b
00000030: 0f54 043c 019a 03bb 90a4 39bb 8843 453c
00000040: 8190 1b3b b65b 573b 15cf b83b 3f15 c03c
00000050: 33ee 07bc dcb5 363c bd13 db3a b650 35ba
00000060: 6754 23bc a6ce e03b c3d8 ae3b 0639 de3c
00000070: 538e 243c 9aef e7ba 0833 093c bcbc f83a
00000080: 16da e73c 52df 4c3b 0924 a83c 2717 cb3b
00000090: 3774 933c 9ede f239 9bc8 f13c 3782 8e3c
000000a0: 889e da3c 15f3 e83c 9d7f ad3c 516c 863c
000000b0: b3d1 f63c c862 263c 8291 e93b 8d17 c43c
000000c0: 380a e43c d0da f03b cdc5 5c3c 57e4 6f3d
000000d0: 5ef2 98bb 84df a63c 1405 923c ab19 733b
000000e0: 6e06 1e3c de7c 5c3c 4dc0 063c 3764 b83d
000000f0: c711 303d 7144 a93c f35a 3b3c c09f 473c
00000100: 1996 803f e76c 803f d010 803f 53ed 803f
00000110: 8c64 7e3f c678 7f3f 3798 813f ed04 7e3f
00000120: 3ec8 7b3f 6c77 803f e62c 803f 8257 803f
00000130: abd2 803f f45d 7f3f 0bfb 7e3f 656c 823f
00000140: 92f0 803f 7170 803f cc6f 803f 35c7 813f
00000150: 918a 7f3f d7c3 803f 54a1 803f bb3a 7f3f
00000160: f666 803f dc80 803f 5c56 803f b141 823f
00000170: 60a4 823f 4fa7 803f a887 803f 4b3e 803f
00000180: 74be cb3b b390 a0bb f14e 5c3b a7d7 b83b
00000190: 0331 84bb 78b7 6ebb f334 e3ba 10b5 2c3b
000001a0: fd0f afbb 4924 64bb 0afb 82ba 43e7 083b
000001b0: cb2c db3a 28cd 5a3b 4d1f 36bb 6503 523c
000001c0: db1b 6cbb c273 94bb c887 af3a 3669 93bb
000001d0: cc0c b2bb 450d a0ba b112 a4ba e11a 7dbb
000001e0: 0b83 af3b 2423 dd3a 2733 903b a798 bcbb
000001f0: f335 72bb 81e8 313b a2d2 20b8 de07 863b
00000200: 0000 0000 0000 0000 0000 0000 0000 0000
00000210: 0000 0000 0000 0000 0000 0000 0000 0000
00000220: 0000 0000 0000 0000 0000 0000 0000 0000
00000230: 0000 0000 0000 0000 0000 0000 0000 0000
00000240: 0000 0000 0000 0000 0000 0000 0000 0000
00000250: 0000 0000 0000 0000 0000 0000 0000 0000
00000260: 0000 0000 0000 0000 0000 0000 0000 0000
00000270: 0000 0000 0000 0000 0000 0000 0000 0000
00000280: 0000 0000 0000 0000 0000 0000 0000 0000
00000290: 0000 0000 0000 0000 0000 0000 0000 0000
000002a0: 0000 0000 0000 0000 0000 0000 0000 0000
000002b0: 0000 0000 0000 0000 0000 0000 0000 0000
000002c0: 0000 0000 0000 0000 0000 0000 0000 0000
000002d0: 0000 0000 0000 0000 0000 0000 0000 0000
000002e0: 0000 0000 0000 0000 0000 0000 0000 0000
000002f0: 0000 0000 0000 0000 0000 0000 0000 0000
00000300: 0000 0000 0000 0000 0000 0000 0000 0000
00000310: 0000 0000 0000 0000 0000 0000 0000 0000
00000320: 0000 0000 0000 0000 0000 0000 0000 0000
00000330: 0000 0000 0000 0000 0000 0000 0000 0000
00000340: 0000 0000 0000 0000 0000 0000 0000 0000
00000350: 0000 0000 0000 0000 0000 0000 0000 0000
00000360: 0000 0000 0000 0000 0000 0000 0000 0000
00000370: 0000 0000 0000 0000 0000 0000 0000 0000
00000380: 0000 0000 0000 0000 0000 0000 0000 0000
00000390: 0000 0000 0000 0000 0000 0000 0000 0000
000003a0: 0000 0000 0000 0000 0000 0000 0000 0000
000003b0: 0000 0000 0000 0000 0000 0000 0000 0000
000003c0: 0000 0000 0000 0000 0000 0000 0000 0000
000003d0: 0000 0000 0000 0000 0000 0000 0000 0000
000003e0: 0000 0000 0000 0000 0000 0000 0000 0000
000003f0: 0000 0000 0000 0000 0000 0000 0000 0000
0.010916344 -0.0013284662 0.0069289333 0.005122429 -0.017955493 -0.0074071945 -0.0010866518 0.00023986604
0.009651314 -0.0013573683 0.009279885 0.004237511 0.008076682 -0.0020080807 -0.0028326847 0.0120400265
0.0023737254 0.003286106 0.0056399205 0.02344763 -0.008296537 0.011151757 0.0016714256 -0.0006916629
-0.009968854 0.006860572 0.0053358986 0.0271268 0.010043698 -0.0017695308 0.008373983 0.0018977146
0.028302234 0.003126104 0.020524995 0.0061978283 0.017999751 0.000463237 0.029514601 0.017396076
0.026686922 0.028436223 0.021179015 0.016409071 0.03012929 0.010155387 0.0071279416 0.023937011
0.027836904 0.007350303 0.013474894 0.05856737 -0.0046675643 0.020370252 0.017824687 0.0037094157
0.009645088 0.013457505 0.008224559 0.090034895 0.042985704 0.020662518 0.011435258 0.012184083
1.0045806 1.0033234 1.0005131 1.0072426 0.9937217 0.9979366 1.0124577 0.99226266
0.9835242 1.0036445 1.0013702 1.0026705 1.0064291 0.99752736 0.9960181 1.0189329
1.0073416 1.0034314 1.0034118 1.0138918 0.9982081 1.0059766 1.0049233 0.9969899
1.0031421 1.0039325 1.0026355 1.0176297 1.0206413 1.0051059 1.0041399 1.001901
0.006217772 -0.004900062 0.0033616389 0.005640942 -0.004034163 -0.0036425274 -0.0017334506 0.002635304
-0.005342482 -0.0034811667 -0.0009993028 0.0020889796 0.0016721723 0.0033386443 -0.0027789653 0.012818192
-0.0036027345 -0.004530401 0.0013391906 -0.004498626 -0.0054336544 -0.0012210986 -0.0012517778 -0.0038620757
0.0053561977 0.0016871435 0.004400629 -0.0057555023 -0.0036958426 0.002714664 -3.834314e-05 0.0040902933
0.0 0.0 0.0 0.0 0.0 0.0 0.0 0.0
0.0 0.0 0.0 0.0 0.0 0.0 0.0 0.0
0.0 0.0 0.0 0.0 0.0 0.0 0.0 0.0
0.0 0.0 0.0 0.0 0.0 0.0 0.0 0.0
0.0 0.0 0.0 0.0 0.0 0.0 0.0 0.0
0.0 0.0 0.0 0.0 0.0 0.0 0.0 0.0
0.0 0.0 0.0 0.0 0.0 0.0 0.0 0.0
0.0 0.0 0.0 0.0 0.0 0.0 0.0 0.0
0.0 0.0 0.0 0.0 0.0 0.0 0.0 0.0
0.0 0.0 0.0 0.0 0.0 0.0 0.0 0.0
0.0 0.0 0.0 0.0 0.0 0.0 0.0 0.0
0.0 0.0 0.0 0.0 0.0 0.0 0.0 0.0
0.0 0.0 0.0 0.0 0.0 0.0 0.0 0.0
0.0 0.0 0.0 0.0 0.0 0.0 0.0 0.0
0.0 0.0 0.0 0.0 0.0 0.0 0.0 0.0
0.0 0.0 0.0 0.0 0.0 0.0 0.0 0.0
